iknet.pt (torch, 840219 bytes, 12 tensors)

fc1.weight f4 [400, 7]
-0.11856902 -0.25093985 -0.043049816 0.35051054 -0.15472478 0.12855096 -0.35526744 0.11080991
0.20410791 0.0061535975 -0.20872831 -0.09215726 0.008526834 -0.2708356 -0.33230168 -0.32613674
-0.31145138 0.17723781 -0.25619388 0.37801176 -0.22691835 -0.15151925 -0.16455188 -0.049491648
0.2526277 0.08006255 -0.08146772 -0.1599361 0.360939 0.20671293 -0.3396694 -0.0106593305
-0.05939082 0.011654411 -0.06775194 -0.20055483 -0.1269343 -0.24641743 0.45547608 0.061189577
0.010940857 -0.25258532 0.35326794 -0.00960587 -0.06603606 0.011425793 -0.021674238 -0.0590404
-0.26159108 -0.39068314 -0.20170167 -0.27852446 -0.38135776 0.19315249 -0.32106814 -0.36243945
0.5004106 -0.6104835 0.08349537 -0.48240542 -0.17945366 0.07506305 -0.26228848 0.31188738
0.2476552 0.31148383 0.21886745 -0.0012497896 0.18325724 0.0071810437 0.25390857 -0.005402523
-0.61060023 -0.32238573 -0.29220966 0.115518965 0.3357071 0.16671789 -0.06395575 -0.017705891
0.37364036 -0.05045054 -0.039439533 -0.35581732 0.07000831 -0.03596497 0.13360351 -0.07484798
0.013929028 0.23689821 0.20178574 -0.03490964 -0.4782128 -0.29027447 -0.030397965 0.09917739
-0.08153181 -0.34908742 -0.3124481 0.34818882 -0.2636642 0.1976463 -0.18073308 -0.13118769
-0.1215429 -0.1378272 0.45887458 -0.13607524 0.26923916 -0.08470306 -0.19062944 -0.20608217
-0.20275655 0.3212312 -0.15895155 -0.22877514 -0.14760964 0.09526415 0.15630187 -0.30343488
-0.25157854 -0.40168974 0.10051327 -0.014773595 -0.34974027 -0.06309758 -0.33526272 0.17671141
0.009158587 -0.15870687 -0.22344811 0.14304844 0.27818248 -0.15881331 0.22571151 0.33555162
0.32344326 0.2619184 0.050550234 0.20269692 -0.37797 -0.25371513 -0.13543081 0.32115525
0.11923664 -0.35497805 0.14615029 -0.0014012525 0.46430677 -0.2574131 -0.27073804 -0.3063809
-0.18613845 -0.109098256 0.03437745 -0.028599948 -0.28399548 -0.050536156 -0.23306288 0.0077976855
-0.07087945 -0.09108263 0.25732538 -0.08639419 0.0082855495 -0.32224515 0.11232324 -0.05344548
0.16472672 -0.2311652 -0.54257077 -0.19539651 -0.37209514 -0.124308296 0.24961148 0.39990383
0.046072572 0.24684931 -0.37038648 -0.15900432 -0.27035654 -0.36577022 -0.01844827 0.2923629
0.16574928 -0.18599609 0.05605875 -0.20764817 0.023101615 -0.13598105 -0.08412991 -0.52863234
0.085910715 0.051366284 0.1645302 -0.0333433 0.04026432 0.38773754 0.4165518 -0.3007566
0.40907404 -0.024009753 -0.114001326 0.58166474 0.11769045 0.37887684 -0.017787142 -0.29267216
-0.040073678 0.19918923 -0.34724936 0.17317156 -0.123134635 -0.3462748 0.1536881 -0.1649309
0.12233196 -0.1562639 -0.23592506 -0.26946324 -0.3544771 -0.09360011 -0.3146018 -0.04514836
0.2982585 0.2017398 -0.51362735 0.29411852 -0.029546054 -0.11350513 -0.048994787 0.31741968
-0.31584704 -0.14287369 -0.52459633 -0.3284716 -0.3152118 0.13539289 -1.0353843 0.4142347
0.14290588 -0.1503707 -0.3571478 0.034262225 -0.3306203 0.03617319 -0.28254494 -0.28215995
0.33192235 0.2080438 0.32535142 0.025897626 0.19805129 0.2864413 0.19759959 -0.28760216
00000000: 50d4 f2bd 307b 80be 0155 30bd 1e76 b33e
00000010: 2c70 1ebe dda2 033e 9de5 b5be 4ef0 e23d
00000020: aa01 513e 1ea4 c93b e0bc 55be f2bc bcbd
00000030: 22b4 0b3c f7aa 8abe 7223 aabe 65fb a6be
00000040: 8e76 9fbe d47d 353e d82b 83be c28a c13e
00000050: 495d 68be dd27 1bbe 4a80 28be c1b7 4abd
00000060: 6b58 813e d6f7 a33d 8cd8 a6bd 4ac6 23be
00000070: ffcc b83e 8eac 533e 26e9 adbe 79a4 2ebc
00000080: ca43 73bd 25f2 3e3c 87c1 8abd 3f5e 4dbe
00000090: 11fb 01be da54 7cbe 2934 e93e eca1 7a3d
000000a0: 4841 333c dd52 81be 89df b43e f061 1dbc
000000b0: ea3d 87bd 4033 3b3c 2c8e b1bc 59d4 71bd
000000c0: 44ef 85be 9f07 c8be e28a 4ebe c29a 8ebe
000000d0: 5341 c3be c4c9 453e 0b63 a4be aa91 b9be
000000e0: e91a 003f a648 1cbf 9fff aa3d d8fd f6be
000000f0: b3c2 37be a8ba 993d ad4a 86be b4af 9f3e
00000100: 5399 7d3e cf7a 9f3e ca1e 603e fbcf a3ba
00000110: c9a7 3b3e f64e eb3b 4e00 823e a607 b1bb
00000120: 4c50 1cbf be0f a5be 819c 95be 3595 ec3d
00000130: cde1 ab3e 18b8 2a3e 3bfb 82bd f20b 91bc
00000140: ca4d bf3e 3aa5 4ebd 598b 21bd b02d b6be
00000150: 8460 8f3d 0150 13bd 5ccf 083e e649 99bd
00000160: 9436 643c 7295 723e eca0 4e3e 69fd 0ebd
00000170: 4fd8 f4be db9e 94be 2705 f9bc 841d cb3d
00000180: 26fa a6bd 96bb b2be 33f9 9fbe ce45 b23e
00000190: fefe 86be cb63 4a3e 1812 39be 1156 06be
000001a0: 7ceb f8bd 9322 0dbe 9cf1 ea3e 4f57 0bbe
000001b0: b7d9 893e cc78 adbd 5d34 43be 3407 53be
000001c0: 6a9f 4fbe 6a78 a43e 32c4 22be 0844 6abe
000001d0: fb26 17be da19 c33d 990d 203e d15b 9bbe
000001e0: e7ce 80be 47aa cdbe e7d9 cd3d f30c 72bc
000001f0: 2811 b3be 4e39 81bd 8ea7 abbe d6f3 343e
00000200: e60d 163c 0e84 22be 95cf 64be 4a7b 123e
00000210: ef6d 8e3e f59f 22be eb20 673e 6ccd ab3e
00000220: 5b9a a53e 2b1a 863e c30d 4f3d c88f 4f3e
00000230: 4985 c1be f3e6 81be 60ae 0abe 766e a43e
00000240: 5732 f43d afbf b5be 6ca8 153e 3baa b7ba
00000250: 9eb9 ed3e a6cb 83be 2d9e 8abe f5dd 9cbe
00000260: 149b 3ebe e86e dfbd 5ecf 0c3d 704a eabc
00000270: db67 91be 00ff 4ebd 09a8 6ebe ba83 ff3b
00000280: 3f29 91bd 8889 babd 27c0 833e 70ef b0bd
00000290: 1dc0 073c 51fd a4be ba09 e63d a6e9 5abd
000002a0: 1fae 283e 92b6 6cbe ebe5 0abf 0616 48be
000002b0: 4183 bebe 5995 febd 279a 7f3e 32c0 cc3e
000002c0: 98b6 3c3d 11c6 7c3e 4ca3 bdbe 07d2 22be
000002d0: 2c6c 8abe 3c46 bbbe d420 97bc 97b0 953e
000002e0: 2eba 293e c275 3ebe dc9d 653d b9a1 54be
000002f0: 993f bd3c 9e3e 0bbe 4d4c acbd 7354 07bf
00000300: f5f1 af3d 7465 523d 9b7a 283e fc92 08bd
00000310: 33ec 243d 8985 c63e 4746 d53e c5fc 99be
00000320: 2772 d13e 1ab0 c4bc 8779 e9bd fbe7 143f
00000330: b107 f13d 25fc c13e 57b6 91bc 20d9 95be
00000340: 4c24 24bd 43f8 4b3e abca b1be e353 313e
00000350: 032e fcbd ee4a b1be 6a60 1d3e a5e3 28be
00000360: 2e89 fa3d a503 20be 5796 71be 16f7 89be
00000370: 067e b5be 6ab1 bfbd 7d13 a1be 7ded 38bd
00000380: 57b5 983e e194 4e3e 157d 03bf b496 963e
00000390: 910a f2bc 6175 e8bd c2ae 48bd d584 a23e
000003a0: b4b6 a1be 7b4d 12be f24b 06bf 6e2d a8be
000003b0: 7163 a1be 6fa4 0a3e 7987 84bf 9216 d43e
000003c0: eb55 123e c7fa 19be 14dc b6be 8c56 0c3d
000003d0: 1047 a9be 572a 143d bba9 90be 4577 90be
000003e0: baf1 a93e 6f09 553e 7694 a63e 4227 d43c
000003f0: f5cd 4a3e 6fa8 923e 8c57 4a3e 9740 93be

fc1.bias f4 [400]
-0.3637546 -0.21776916 -0.10707798 -0.33847883 -0.35139704 0.12684622 0.07798644 0.24328096
0.04681736 0.0856733 -0.13014053 0.17121966 -0.23469834 0.30278048 -0.29248446 0.12575677
-0.033077482 0.2697648 -0.14096722 -0.3110727 0.087111 0.19427846 -0.19779876 0.049273245
-0.11209059 0.087314986 0.10862666 0.09498122 0.17235418 -0.29146522 0.26749048 0.073888265
0.19061233 -0.25122103 -0.07430255 -0.18758327 -0.21277961 0.07661732 0.035354 -0.22334103
-0.22951145 -0.29482245 0.2745221 -0.17680782 0.16961147 0.19729406 -0.18305804 -0.031570822
0.019155875 0.037706528 -0.36366534 -0.14358257 -0.056179393 0.13283414 -0.07968462 0.08158786
-0.17840564 0.26973188 -0.27648094 -0.25952166 0.13957752 -0.15085883 -0.18264073 0.03204433
0.06753735 0.028457403 0.1106209 -0.030137572 -0.2457042 -0.29273844 0.26488134 -0.044886697
-0.06826971 0.12386145 -0.111579135 -0.3158159 0.14157347 -0.06767628 0.07154427 -0.18529554
-0.35403422 0.045357287 -0.045154516 -0.3740222 0.014073993 0.06949515 0.06362776 0.18668614
0.23773602 -0.22029528 -0.0048816865 -0.12527308 -0.22013049 -0.12772469 -0.32688507 -0.13443606
0.1591847 0.12352794 0.06362755 0.16881846 -0.11517297 -0.309573 -0.34104604 -0.3147755
-0.16175121 -0.078137234 0.18042931 -0.23524974 0.12220489 0.021656439 -0.09090898 -0.082965344
0.17533316 -0.27565333 0.15053816 0.0043914206 -0.31243798 0.2250056 0.29261538 0.21657817
-0.21422826 0.16931044 0.24117102 0.06443459 -0.06661886 -0.054931425 -0.04576786 -0.17998572
-0.03996857 -0.20024467 -0.32282126 -0.35457623 0.16317843 0.14970346 0.20256533 0.06609945
-0.2593791 -0.07400274 0.20841284 0.047082033 0.009547241 0.15950136 -0.17049325 -0.20991874
-0.207455 -0.32543382 -0.3571085 0.06750117 0.23584302 -0.04493665 -0.12078177 -0.07290822
0.14121765 -0.13657176 0.2574758 0.054875582 -0.015187664 -0.08181341 0.06985634 0.08927689
0.17692174 0.05081163 -0.3244673 0.20511614 -0.37460002 0.20710078 0.037474126 0.16345382
-0.23426594 -0.17679104 0.07827943 0.26057583 -0.11721078 -0.32688943 -0.1544364 0.08749129
-0.36242533 -0.15975109 -0.24852929 -0.12857008 0.24748144 -0.26997715 -0.093625724 0.08331229
-0.24723634 0.06517713 -0.15172012 -0.10212569 -0.22139025 -0.098885894 0.008066766 0.24892047
0.024397507 -0.29077458 0.0030488789 -0.13231009 0.18824571 0.13250005 -0.33994573 -0.16527441
0.07419958 0.0067282435 -0.28744966 -0.08252289 0.06884135 0.16524337 -0.0668424 -0.2458072
-0.378502 0.22453684 -0.012252093 -0.0796149 -0.32460326 -0.27115163 -0.062928595 0.19508438
-0.20511104 0.020281162 -0.14408448 0.14848508 0.22770004 -0.07515626 0.022063272 0.22428563
0.026671842 -0.12197515 -0.021670375 0.17884852 -0.36463106 -0.1305654 0.03307671 0.15924007
-0.017841259 -0.013337678 0.2321067 0.27705407 0.119924285 -0.24886839 -0.25130373 -0.15453888
0.07259688 -0.29958594 -0.06603645 0.08309149 -0.16474603 -0.26162776 0.012250581 -0.26885438
-0.1529626 -0.28941694 0.16649361 0.17552848 0.23873056 -0.24938889 0.14800328 -0.24201147
00000000: 0b3e babe e1fe 5ebe b34b dbbd 194d adbe
00000010: 50ea b3be fae3 013e 5bb7 9f3d a51e 793e
00000020: 8fc3 3f3d 7c75 af3d 8f43 05be 3554 2f3e
00000030: c354 70be 0b06 9b3e 86c0 95be 62c6 003e
00000040: 417c 07bd 9d1e 8a3e b659 10be ec44 9fbe
00000050: 4167 b23d eff0 463e c28b 4abe bed2 493d
00000060: c08f e5bd 33d2 b23d a877 de3d 8485 c23d
00000070: 9d7d 303e ee3a 95be 83f4 883e bb52 973d
00000080: e12f 433e 0ba0 80be ef2b 98bd d415 40be
00000090: e6e2 59be 8be9 9c3d 5bcf 103d 83b3 64be
000000a0: 0d05 6bbe f8f2 96be 298e 8c3e 1c0d 35be
000000b0: a1ae 2d3e 7407 4a3e 9173 3bbe 6850 01bd
000000c0: c8ec 9c3c 2972 1a3d 5832 babe 4f07 13be
000000d0: 5d1c 66bd ac05 083e b131 a3bd 8917 a73d
000000e0: f8af 36be 4c1a 8a3e e98e 8dbe 06e0 84be
000000f0: 69ed 0e3e bd7a 1abe 2c06 3bbe ea40 033d
00000100: 0651 8a3d 801f e93c 368d e23d 12e3 f6bc
00000110: e299 7bbe d0e1 95be 879e 873e 1ddb 37bd
00000120: fdd0 8bbd 12ab fd3d 9a83 e4bd 9fb2 a1be
00000130: a3f8 103e dd99 8abd cd85 923d 1dbe 3dbe
00000140: f943 b5be 90c8 393d f1f3 38bd d67f bfbe
00000150: 9b96 663c 7953 8e3d 454f 823d a72a 3f3e
00000160: 1271 733e 1695 61be 8ef6 9fbb 9647 00be
00000170: e369 61be 43ca 02be 7b5d a7be 9ba9 09be
00000180: 5001 233e 37fc fc3d 294f 823d bfde 2c3e
00000190: cedf ebbd 5a80 9ebe 969d aebe 412a a1be
000001a0: 1ca2 25be 6a06 a0bd 76c2 383e 4fe5 70be
000001b0: 8f46 fa3d d868 b13c 7d2e babd bce9 a9bd
000001c0: 898a 333e 6f22 8dbe ad26 1a3e e8e5 8f3b
000001d0: dff7 9fbe de67 663e afd1 953e abc6 5d3e
000001e0: a75e 5bbe b75f 2d3e 89f5 763e 48f6 833d
000001f0: 786f 88bd c6ff 60bd 1477 3bbd 2d4e 38be
00000200: 15b6 23bd f00c 4dbe d448 a5be 048b b5be
00000210: 3f18 273e dd4b 193e 496d 4f3e 265f 873d
00000220: 56cd 84be c08e 97bd 2d6a 553e 17d9 403d
00000230: 086c 1c3c 5354 233e c895 2ebe f0f4 56be
00000240: 156f 54be 439f a6be edd6 b6be 0e3e 8a3d
00000250: d580 713e 7e0f 38bd 6f5c f7bd e850 95bd
00000260: 5c9b 103e 78d9 0bbe ded3 833e 38c5 603d
00000270: aed5 78bc ca8d a7bd d710 8f3d cdd6 b63d
00000280: f92a 353e db1f 503d 9420 a6be f709 523e
00000290: 93cb bfbe 3a12 543e 787e 193d 7060 273e
000002a0: 69e3 6fbe b608 35be f750 a03d 326a 853e
000002b0: 350c f0bd 0d5e a7be 9324 1ebe a22e b33d
000002c0: d08f b9be ca95 23be 767e 7ebe e0a7 03be
000002d0: c66b 7d3e 723a 8abe d8be bfbd a29f aa3d
000002e0: 862b 7dbe 967b 853d 855c 1bbe 4627 d1bd
000002f0: 20b4 62be b084 cabd 782a 043c 02e5 7e3e
00000300: 48dd c73c 68e0 94be b3cf 473b 4c7c 07be
00000310: 7cc3 403e 18ae 073e 5e0d aebe b23d 29be
00000320: f3f5 973d 9978 dc3b 9a2c 93be c301 a9bd
00000330: b2fc 8c3d 8f35 293e abe4 88bd e2b4 7bbe
00000340: 04cb c1be fcec 653e 01bd 48bc 230d a3bd
00000350: 6632 a6be 63d4 8abe b5e0 80bd 33c4 473e
00000360: a108 52be ae24 a63c e28a 13be 790c 183e
00000370: 332a 693e 86eb 99bd 09be b43c 22ab 653e
00000380: e87e da3c 1cce f9bd 1286 b1bc 1124 373e
00000390: ecb0 babe f0b2 05be 727b 073d d40f 233e
000003a0: d527 92bc 4786 5abc 61ad 6d3e 08da 8d3e
000003b0: dd9a f53d 5bd7 7ebe e2aa 80be 713f 1ebe
000003c0: acad 943d 5463 99be 1e3e 87bd df2b aa3d
000003d0: 2fb3 28be 13f4 85be a9b6 483c 48a7 89be
000003e0: 3aa2 1cbe 752e 94be 4d7d 2a3e bdbd 333e
000003f0: c975 743e cd5f 7fbe 2c8e 173e dbd1 77be

fc2.weight f4 [300, 400]
0.046203643 -0.022488106 -0.019215887 0.0624375 0.049094107 0.03218722 -0.0037465391 -0.010811644
-0.10110612 -0.074735545 0.0056281155 -0.038214456 -0.019637493 -0.027416313 0.017032523 -0.047377426
-0.05759127 -0.025078984 -0.011051229 0.013554336 -0.07313935 -0.072732836 -0.020842189 -0.037960954
-0.083038196 -0.08898756 -0.05470048 -0.09852229 -0.0669464 -0.077577755 -0.009191899 -0.02011111
-0.0071067037 -0.017872099 -0.02772216 -0.032043822 0.02386633 -0.039785903 -0.08303328 -0.0052091614
-0.0048639793 -0.05937785 -0.05793929 -0.07757333 -0.06827795 -4.5275734e-05 -0.038521666 -0.026681833
-0.018961957 -0.0035239635 0.041095734 -0.010183168 -0.05099501 -0.049598563 -0.09593593 -0.025483655
-0.087373175 -0.03768521 -0.0016402185 -0.042808384 -0.045318186 0.08954717 -0.041802596 -0.050458472
0.053074095 -0.047681104 0.009642166 0.022559205 -0.015282178 0.031389773 -0.048018944 -0.024864525
-0.0030499005 -0.089736655 0.10883369 -0.048235804 -0.0728631 0.021379929 -0.084612325 0.052417986
-0.038499184 -0.008259432 -0.14210114 -0.08169724 -0.0129231475 -0.008436726 0.023487365 -0.10745292
0.007935638 -0.007144165 -0.04113566 -0.028850887 -0.009970834 0.008378502 -0.0006526053 -0.014958458
-0.003308111 -0.013486905 -0.0105711045 -0.007999321 -0.07695667 -0.005915536 0.04928797 -0.071448654
0.018194204 -0.10993764 -0.08699515 0.050659873 -0.05133245 -0.02651744 0.008053768 -0.02924269
-0.0038104807 -0.040023226 -0.022005996 -0.06111677 -0.024043923 -0.052608903 -0.07442096 -0.047436837
0.013471696 -0.051412128 -0.043073256 -0.07201494 -0.061850775 -0.069894634 0.020818379 -0.026418367
-0.047873724 -0.08251321 0.019037588 -0.054985568 -0.020876393 -0.016130036 -0.012344534 -0.08360717
-0.05754912 0.009390962 -0.005470333 -0.018954912 -0.02312142 -0.03303411 -0.013221271 -0.10911842
-0.0209417 -0.008433413 0.034844548 0.0086637195 -0.0776295 0.017956633 0.005707198 -0.0023353703
-0.06942156 -0.055704106 -0.056205977 -0.057043742 -0.017632814 0.06033912 -0.032530595 0.011770701
-0.0012687084 -0.0097401375 -0.010694537 0.03613091 0.026458621 0.028595235 -0.07753347 -0.027061392
-0.014469226 -0.08230912 -0.016038774 -0.022053959 -0.043185428 -0.03534278 -0.030651353 -0.018832467
0.028561855 -0.09966431 -0.049200613 -0.015657153 0.015643112 0.04405082 -0.041046016 -0.12396799
-0.10135971 -0.0126826605 -0.083438784 0.022555357 -0.04417913 -0.036836978 -0.10771654 -0.057095595
-0.025901593 -0.024731625 -0.03599209 -0.014700123 -0.058390956 -0.08544588 0.034804232 -0.028784359
-0.05925728 -0.02307721 -0.02791909 -0.0685286 0.00411426 -0.017315382 0.08091942 -0.002209019
-0.027270934 -0.011572539 -0.026926689 -0.0648619 0.035778236 0.015486527 0.007195879 -0.045121275
0.029445767 -0.038270675 -0.05436688 -0.014405947 -0.04928274 -0.07033098 0.010980475 -0.023621682
-0.07839242 -0.017885419 -0.006769386 0.009674392 -0.013321555 -0.039943077 0.0027030061 -0.044967078
0.0023935002 -0.01684786 -0.032359198 -0.070133954 -0.07179886 0.058958087 -0.06304211 -0.077291615
-0.09136055 -0.040808886 -0.03424149 -0.00725231 -0.012654458 -0.061933894 -0.100944914 -0.036896028
0.013470263 0.024410784 0.0043344083 -0.096110396 -0.006623828 0.040424414 -0.002958474 -0.06361754
00000000: 0840 3d3d fa38 b8bc a36a 9dbc 77be 7f3d
00000010: e716 493d bfd6 033d 7f88 75bb 5223 31bc
00000020: ba10 cfbd f30e 99bd 0e6c b83b c386 1cbd
00000030: cfde a0bc 2d98 e0bc ca87 8b3c d50e 42bd
00000040: d3e4 6bbd 7172 cdbc 3710 35bc 0113 5e3c
00000050: 15ca 95bd f4f4 94bd 3dbd aabc f27c 1bbd
00000060: ee0f aabd 1c3f b6bd 9c0d 60bd 0ec6 c9bd
00000070: 321b 89bd 16e1 9ebd 9e99 16bc 0ec0 a4bc
00000080: 5adf e8bb 8268 92bc 9519 e3bc 6240 03bd
00000090: 5283 c33c 8bf6 22bd 5a0d aabd 9db1 aabb
000000a0: 0462 9fbb 3036 73bd c051 6dbd c4de 9ebd
000000b0: 4fd5 8bbd 73e6 3db8 e5c8 1dbd dc93 dabc
000000c0: 1b56 9bbc 4cf2 66bb 0054 283d 4dd7 26bc
000000d0: 25e0 50bd dd27 4bbd 0f7a c4bd 19c3 d0bc
000000e0: b5f0 b2bd cf5b 1abd 9afc d6ba d857 2fbd
000000f0: 909f 39bd 8264 b73d 3339 2bbd 8bad 4ebd
00000100: 3964 593d 434d 43bd 2dfa 1d3c 15ce b83c
00000110: 1a62 7abc 9092 003d 83af 44bd b0b0 cbbc
00000120: d7e0 47bb dac7 b7bd 33e4 de3d e892 45bd
00000130: 4039 95bd f624 af3c 3a49 adbd 3eb4 563d
00000140: 52b1 1dbd 9252 07bc f682 11be e250 a7bd
00000150: 9cbb 53bc 323a 0abc 9368 c03c 4710 dcbd
00000160: 7a04 023c 9a19 eabb de7d 28bd b258 ecbc
00000170: b55c 23bc fc45 093c 9a13 2bba 5214 75bc
00000180: e5cc 58bb 2ef8 5cbc 6d32 2dbc 960f 03bc
00000190: 759b 9dbd 1dd7 c1bb 2fe2 493d ac53 92bd
000001a0: 030c 953c fc26 e1bd 832a b2bd ba80 4f3d
000001b0: fa41 52bd 1a3b d9bc f4f3 033c 5e8e efbc
000001c0: 42b9 79bb 65ef 23bd eb45 b4bc 9455 7abd
000001d0: c3f7 c4bc 6f7c 57bd 046a 98bd 214d 42bd
000001e0: 63b8 5c3c 8695 52bd 956d 30bd 927c 93bd
000001f0: 3d57 7dbd eb24 8fbd 4e8b aa3c 556b d8bc
00000200: 3d17 44bd b0fc a8bd b7f4 9b3c 8c38 61bd
00000210: f804 abbc 2323 84bc ba40 4abc 3c3a abbd
00000220: a0b8 6bbd 8ddc 193c 7b40 b3bb 5547 9bbc
00000230: 2269 bdbc c64e 07bd 089e 58bc 7a79 dfbd
00000240: ee8d abbc 4c2c 0abc 28b9 0e3d 46f2 0d3c
00000250: 37fc 9ebd ca19 933c 7203 bb3b 030d 19bb
00000260: e42c 8ebd fd29 64bd 3d38 66bd b3a6 69bd
00000270: b172 90bc 2726 773d cd3e 05bd e6d9 403c
00000280: ca4a a6ba 1995 1fbc 2438 2fbc 01fe 133d
00000290: c0bf d83c 8e40 ea3c dec9 9ebd daaf ddbc
000002a0: 5510 6dbc af91 a8bd bf63 83bc 81aa b4bc
000002b0: 34e3 30bd 97c3 10bd 8c18 fbbc 8c46 9abc
000002c0: 8dfa e93c cd1c ccbd 9586 49bd 6e43 80bc
000002d0: fc25 803c a26e 343d de1f 28bd eee2 fdbd
000002e0: ae95 cfbd efca 4fbc f4e1 aabd 03c6 b83c
000002f0: 2df5 34bd 5fe2 16bd 7d9a dcbd 12dd 69bd
00000300: 942f d4bc fa99 cabc 716c 13bd c9d8 70bc
00000310: 5b2b 6fbd 40fe aebd e28e 0e3d 2dcd ebbc
00000320: c3b7 72bd 6b0c bdbc 93b6 e4bc b958 8cbd
00000330: ead0 863b fdd8 8dbc 15b9 a53d 30c5 10bb
00000340: 4b67 dfbc bf9a 3dbc 5c95 dcbc 51d6 84bd
00000350: 338c 123d 34bb 7d3c 68cb eb3b 16d1 38bd
00000360: 4038 f13c b6c1 1cbd ceaf 5ebd ec06 6cbc
00000370: b3dc 49bd b009 90bd 73e7 333c 4282 c1bc
00000380: 358c a0bd 7184 92bc bad1 ddbb 5781 1e3c
00000390: a742 5abc 5a9b 23bd eb24 313b 662f 38bd
000003a0: 45dc 1c3b 8604 8abc 148b 04bd 64a2 8fbd
000003b0: 480b 93bd 097e 713d 391c 81bd 114b 9ebd
000003c0: 3d1b bbbd 3827 27bd ce40 0cbd c9a4 edbb
000003d0: a554 4fbc 65ae 7dbd 35bc cebd 4a20 17bd
000003e0: 61b2 5c3c 20f9 c73c a707 8e3b 87d5 c4bd
000003f0: b20c d9bb 1294 253d f5e2 41bb ea49 82bd

fc2.bias f4 [300]
-0.01451158 -0.016315736 -0.030796014 -0.04121674 -0.011354231 -0.070435055 -0.08623824 0.03918983
-0.0014614835 0.049044557 -0.0038713787 -0.061862368 -0.07580659 -0.06998072 -0.05352752 -0.050677452
-0.006561559 -0.03103388 -0.023455868 -0.034783047 -0.027279818 -0.016081396 -0.04014045 0.010258292
-0.090382494 -0.022239318 0.0025548982 -0.049817085 -0.017389277 -0.08837452 -0.0394577 -0.027563423
-0.13619725 -0.0453099 -0.02990837 -0.033924635 -0.064887024 -0.09035327 -0.10568963 0.02731618
-0.053612348 -0.033913136 0.0608362 -0.03862104 -0.09248387 -0.07781804 -0.110137 -0.015112202
-0.09401566 -0.075106815 -0.07548482 -0.01926545 -0.05913765 -0.1026536 -0.0525857 0.0077698976
-0.04129812 -0.026930189 -0.00052541925 -0.024060344 -0.09086215 0.004294538 0.044417936 -0.04234624
0.0036970433 -0.04302278 -1.2190509e-05 -0.014537709 -0.101801276 0.01708959 -0.07671312 -0.09207673
-0.055595197 -0.00795842 -0.08771349 0.022360994 -0.09780295 -0.02575766 -0.07730468 -0.040199067
-0.0968839 -0.06498725 -0.032226015 -0.03079132 -0.011477182 -0.09060861 -0.079342425 -0.08875865
-0.101052366 -0.1152121 -0.03657076 -0.04860195 -0.10237467 0.0015357822 -0.04077739 -0.09767088
-0.09132256 -0.068089336 -0.043069664 -0.0451629 -0.00030706645 -0.02193723 -0.121908925 -0.07535513
0.02678519 0.017954163 -0.06724068 -0.07639883 -0.017487155 -0.1021943 -0.0054823365 -0.06392557
0.058435805 -0.020880166 -0.052668225 0.03605185 -0.035433155 -0.016932482 -0.109947324 -0.10632409
-0.05629336 -0.01415254 -0.052196447 0.0025390736 -0.08552377 -0.13458003 -0.002844056 -0.0981736
-0.016303308 -0.044970475 -0.043817375 -0.027270807 -0.039148573 -0.045549937 -0.035638995 -0.03837214
-0.06518172 -0.10895931 -0.07552441 -0.06821243 0.018262472 0.01582817 0.081972465 -0.0073144063
-0.082489304 0.058772583 0.007507829 -0.07179692 -0.05064394 0.030722791 -0.08361075 -0.01882003
-0.024088599 -0.03557717 -0.015471238 -0.037831783 -0.030031985 -0.06683193 0.028547956 -0.09582901
-0.016453207 -0.041512035 0.015942609 -0.090528935 -0.060177084 -0.082760066 -0.036269784 -0.11789587
-0.047386065 -0.01183565 -0.0643769 -0.021582272 -0.0897675 0.02434384 0.007012657 -0.09182715
-0.046528835 -0.019688632 -0.014056548 -0.121315196 -0.07157159 -0.056466196 -0.030112425 -0.037544627
-0.034863275 0.06450155 -0.1083406 -0.01646798 -0.091830805 -0.03922538 -0.029424231 -0.009348518
-0.05591749 -0.028988883 0.009200281 -0.028616844 -0.021056762 -0.047835317 0.076706156 -0.011838417
-0.012962665 -0.113293804 -0.08529986 -0.055506695 -0.030678023 -0.1140624 0.029024066 -0.07127048
-0.044194706 -0.08279123 -0.019070094 -0.05015799 -0.04954924 -0.044726096 -0.077938534 -0.055317976
-0.033068355 -0.095095485 -0.085720375 -0.07664099 -0.09421466 -0.03241191 0.100989126 0.046578687
-0.0844766 0.054168846 -0.064326465 -0.076024644 0.0015931327 -0.025938768 -0.08281658 -0.020266302
-0.048292156 0.04557739 -0.15894936 -0.050475683 -0.014901017 -0.041379195 -0.034215875 -0.05920086
-0.10741979 -0.057843924 -0.040435314 -0.046893913 -0.019664431 -0.01818601 -0.10429479 -0.011548458
-0.09362729 -0.022010975 -0.044628292 -0.09693127 -0.10370577 -0.08290405 -0.038711153 -0.033939894
00000000: fac1 6dbc 94a8 85bc ec47 fcbc e2d2 28bd
00000010: 1907 3abc 4140 90bd ad9d b0bd 8485 203d
00000020: 408f bfba f2e2 483d f5b6 7dbb 6563 7dbd
00000030: 7c40 9bbd 0d52 8fbd ac3f 5bbd 2993 4fbd
00000040: 5902 d7bb c33a febc 8526 c0bc ab78 0ebd
00000050: ed79 dfbc 22bd 83bc 506a 24bd 6512 283c
00000060: 751a b9bd 3b2f b6bc 1470 273b 000d 4cbd
00000070: f573 8ebc b3fd b4bd 669e 21bd b0cc e1bc
00000080: 4b77 0bbe e096 39bd 6602 f5bc 8ff4 0abd
00000090: 7de3 84bd 230b b9bd ce73 d8bd 2ec6 df3c
000000a0: 9f98 5bbd 80e8 0abd 612f 793d 1831 1ebd
000000b0: 2f68 bdbd 115f 9fbd 828f e1bd 2b99 77bc
000000c0: 488b c0bd 9ad1 99bd c997 9abd 94d2 9dbc
000000d0: 523a 72bd 0d3c d2bd 1a64 57bd a09a fe3b
000000e0: 3828 29bd b39c dcbc 4abc 09ba 331a c5bc
000000f0: ef15 babd 32b9 8c3b 95ef 353d 4073 2dbd
00000100: 184a 723b a838 30bd d685 4cb7 922f 6ebc
00000110: 307d d0bd 78ff 8b3c c51b 9dbd ba92 bcbd
00000120: cab7 63bd 0864 02bc 21a3 b3bd 672e b73c
00000130: ea4c c8bd ba01 d3bc eb51 9ebd c7a7 24bd
00000140: 116b c6bd 0918 85bd 6dff 03bd 143e fcbc
00000150: ca0a 3cbc 0291 b9bd 487e a2bd 18c7 b5bd
00000160: 8bf4 cebd 52f4 ebbd 39cb 15bd d712 47bd
00000170: d0a9 d1bd 4d4c c93a 3106 27bd ac07 c8bd
00000180: 5307 bbbd 6c72 8bbd d169 30bd bcfc 38bd
00000190: c3fd a0b9 b5b5 b3bc 63ab f9bd ca53 9abd
000001a0: 9d6c db3c 9c14 933c 7bb5 89bd fd76 9cbd
000001b0: 3941 8fbc 3f4b d1bd 2ca5 b3bb 69eb 82bd
000001c0: 625a 6f3d e20c abbc a3ba 57bd 1bab 133d
000001d0: 5b22 11bd fdb5 8abc 102c e1bd 72c0 d9bd
000001e0: de93 66bd 0ee0 67bc f1cb 55bd 9666 263b
000001f0: 1627 afbd 59cf 09be 5863 3abb 3e0f c9bd
00000200: 848e 85bc f632 38bd d979 33bd 0767 dfbc
00000210: 415a 20bd 9292 3abd 32fa 11bd 1b2c 1dbd
00000220: fe7d 85bd 0f26 dfbd 8bac 9abd f5b2 8bbd
00000230: 2e9b 953c 14aa 813c 2ee1 a73d b0ad efbb
00000240: 27f0 a8bd 85bb 703d 3c04 f63b 430a 93bd
00000250: 0570 4fbd 5dae fb3c 1d3c abbd 772c 9abc
00000260: 7455 c5bc 5eb9 11bd 137b 7dbc 80f5 1abd
00000270: a305 f6bc 2edf 88bd 67dd e93c 0042 c4bd
00000280: e0c8 86bc 8608 2abd 139a 823c 3c67 b9bd
00000290: 3f7c 76bd 1c7e a9bd a08f 14bd 6473 f1bd
000002a0: e417 42bd 50ea 41bc 09d8 83bd 4ecd b0bc
000002b0: 06d8 b7bd bc6c c73c 6eca e53b df0f bcbd
000002c0: 0595 3ebd 0e4a a1bc 6f4d 66bc 1a74 f8bd
000002d0: 2094 92bd 1949 67bd 55ae f6bc 65c8 19bd
000002e0: cbcc 0ebd 6319 843d ade1 ddbd dbe7 86bc
000002f0: ca11 bcbd cbaa 20bd 160b f1bc 872a 19bc
00000300: bd09 65bd 187a edbc c7bc 163c df6d eabc
00000310: 3b7f acbc f7ee 43bd 1e18 9d3d ebf5 41bc
00000320: 5c61 54bc 9506 e8bd b1b1 aebd fd5a 63bd
00000330: 7a50 fbbc 8c99 e9bd e1c3 ed3c 42f6 91bd
00000340: 8205 35bd 738e a9bd e338 9cbc 7772 4dbd
00000350: 25f4 4abd b632 37bd 3d9e 9fbd 1a95 62bd
00000360: af72 07bd 6cc1 c2bd 2a8e afbd f4f5 9cbd
00000370: 9ef3 c0bd 5ac2 04bd 63d3 ce3d 4bc9 3e3d
00000380: 1102 adbd 27e0 5d3d 98bd 83bd cfb2 9bbd
00000390: aad0 d03a 8a7d d4bc bd9b a9bd 8405 a6bc
000003a0: ffcd 45bd 5baf 3a3d 9fc3 22be 97bf 4ebd
000003b0: 6523 74bc 3b7d 29bd f225 0cbd 9a7c 72bd
000003c0: e8fe dbbd c0ed 6cbd 809f 25bd d513 40bd
000003d0: 4d17 a1bc d4fa 94bc 8298 d5bd be35 3dbc
000003e0: aabf bfbd 5c50 b4bc 28cc 36bd e783 c6bd
000003f0: b163 d4bd 99c9 a9bd 968f 1ebd 8f04 0bbd

fc3.weight f4 [200, 300]
0.108614095 0.030044856 -0.13359916 0.029347103 0.066508844 -0.027826644 -0.04869498 0.011530109
-0.059812795 0.030890219 -0.064274766 -0.077678815 -0.020832244 0.03636698 -0.08975815 0.03432181
0.13887696 -0.15485658 0.014950719 -0.0055681677 0.05547521 -0.13494863 -0.043584846 -0.06852473
0.07913214 0.039482273 0.06906301 -0.031968907 -0.0038292492 0.038094696 0.05764258 0.05742904
-0.098533794 -0.047985237 0.043205954 0.15143044 0.045238934 -0.025872935 0.12160633 -0.09212814
0.11808019 0.0137193 0.0064681396 -0.011042744 -0.00070257083 0.02106018 0.04632985 0.027136786
-0.03176773 -0.04624076 0.0126225995 -0.15808122 0.030535705 -0.04251753 -0.014772041 -0.030244404
0.045084924 0.030598454 -0.047540788 -0.0056500724 -0.03480604 0.0060019027 0.10115004 -0.04353557
-0.088287316 0.065918796 -0.023073727 0.036242317 -0.002181521 0.11949637 0.10577939 -0.009089097
-0.016834535 -0.045156766 -0.010413197 0.051731564 0.080860645 0.022624895 -0.05635189 0.035246696
-0.061650302 0.024716223 -0.05863515 0.022052202 0.06264005 0.050890837 -0.0063989763 -0.12671341
-0.050863747 0.025342897 -0.028869556 0.06584493 -0.044557657 0.0015410185 -0.057919927 -0.05380311
0.042009752 -0.006857219 0.03831443 -0.011111878 -0.08043464 -0.038307276 -0.055541392 0.027589452
-0.073516294 -0.07864833 -0.02422206 -0.12768885 0.047696557 -0.15726607 -0.117204204 0.11491972
-0.03225357 -0.0470423 0.018954795 -0.0054695467 -0.013013225 -0.01893626 0.011127125 0.090774104
0.02456077 0.023841295 0.0069993827 -0.046605017 -0.028808007 -0.02704343 -0.10182648 -0.053864148
0.01589573 0.10283145 -0.052454945 0.043603227 -0.1502701 -0.06653684 0.020804824 -0.026370848
0.05426516 0.013106945 -0.12467635 -0.047024652 0.059209988 0.05774478 -0.051841628 0.0780927
-0.021093182 -0.09548519 0.0009940409 0.015251755 -0.04201691 -0.03946829 -0.14908524 0.062153835
-0.046602663 -0.043070234 -0.016495425 0.084629476 -0.011043956 -0.05729953 0.0074324645 0.04837338
0.05248244 0.028639087 0.06464773 0.024637725 0.019794514 -0.035815764 -0.040204465 -0.10366029
-0.05357649 -0.025127692 0.0043192003 -0.017119465 0.052149765 -0.04560112 -0.09574109 0.026468338
0.031206507 -0.037707295 0.019919995 0.046403766 -0.012546051 0.019017639 0.013869545 0.021543184
-0.03812593 0.08734939 0.02965242 -0.019912178 0.018099183 -0.010095251 0.0074798893 0.12294246
0.08763201 -0.17858994 0.119732045 -0.11809945 0.022413217 0.02611955 0.027554393 0.017883442
0.0024940027 -0.019115873 -0.22311285 0.03618758 -0.010202344 -0.09238835 -0.01091136 0.023093741
-0.041626938 0.008012701 -0.05015495 -0.054694742 -0.22397485 -0.041780762 0.0043455465 -0.01858724
0.0024245302 -0.1309025 -0.010893372 -0.022370199 -0.10154538 -0.11176913 0.08509844 -0.005901255
-0.039039146 0.14204964 0.023020511 -0.059883196 -0.099466026 -0.020915514 0.04349961 -0.015298797
-0.021399815 -0.028220225 0.057211105 0.04894355 -0.12984961 0.00019878185 -0.023631014 0.028676474
-0.037303932 -0.0712297 0.016821247 -0.052791268 0.04847559 0.089955024 0.038281288 0.054294705
0.051373586 0.0017198235 -0.061115474 -0.079963505 -0.12522186 0.045934122 0.08460303 -0.009558852
00000000: 1171 de3d a120 f63c 38ce 08be 5669 f03c
00000010: ca35 883d b4f4 e3bc 6374 47bd c8e8 3c3c
00000020: 43fe 74bd 7c0d fd3c 7da2 83bd 1216 9fbd
00000030: 62a8 aabc 8bf5 143d 1fd3 b7bd 0795 0c3d
00000040: c335 0e3e b992 1ebe dcf3 743c 2d75 b6bb
00000050: f939 633d f92f 0abe 0686 32bd b256 8cbd
00000060: 0810 a23d 2ab8 213d e870 8d3d d4f1 02bd
00000070: 24f4 7abb 2f09 1c3d a01a 6c3d b73a 6b3d
00000080: 16cc c9bd 2b8c 44bd baf8 303d 9510 1b3e
00000090: 764c 393d 7af3 d3bc bd0c f93d aead bcbd
000000a0: 07d4 f13d eac6 603c b0f2 d33b a0ec 34bc
000000b0: bb2c 38ba 6686 ac3c 5ec4 3d3d f74d de3c
000000c0: e11e 02bd f366 3dbd 05cf 4e3c 0be0 21be
000000d0: 0426 fa3c dd26 2ebd 6e06 72bc 1dc3 f7bc
000000e0: f8aa 383d 9ca9 fa3c 21ba 42bd 3e24 b9bb
000000f0: c790 0ebd 9cab c43b c127 cf3d 5b52 32bd
00000100: fbcf b4bd 6f00 873d 1d05 bdbc d372 143d
00000110: d9f7 0ebb 83ba f43d dda2 d83d 70ea 14bc
00000120: 94e8 89bc 4df6 38bd 1d9c 2abc 7ae4 533d
00000130: 449a a53d d857 b93c 3dd1 66bd d75e 103d
00000140: 0785 7cbd ad79 ca3c 692b 70bd d2a6 b43c
00000150: 6d49 803d e972 503d 81ae d1bb 29c1 01be
00000160: 8156 50bd e89b cf3c d97f ecbc b5d9 863d
00000170: 1782 36bd 00fc c93a 723d 6dbd a660 5cbd
00000180: 6b12 2c3d 86b2 e0bb 97ef 1c3d 980e 36bc
00000190: ebba a4bd 17e8 1cbd 5f7f 63bd 4603 e23c
000001a0: b68f 96bd 6012 a1bd 576d c6bc dec0 02be
000001b0: 775d 433d 5b0a 21be c208 f0bd 085b eb3d
000001c0: 521c 04bd 6daf 40bd 1647 9b3c e239 b3bb
000001d0: 6c35 55bc 3720 9bbc 8b4e 363c c6e7 b93d
000001e0: ab33 c93c d24e c33c 145b e53b e7e4 3ebd
000001f0: c5fe ebbc 2f8a ddbc 678a d0bd a7a0 5cbd
00000200: c337 823c 4c99 d23d ffda 56bd 4c99 323d
00000210: 68e0 19be 7744 88bd e16e aa3c ad07 d8bc
00000220: 2545 5e3d 83be 563c 5056 ffbd ec9c 40bd
00000230: 2c86 723d ca85 6c3d e357 54bd 11ef 9f3d
00000240: 9ccb acbc bd8d c3bd 7a4a 823a 7fe2 793c
00000250: ec19 2cbd 80a9 21bd cda9 18be 0595 7e3d
00000260: 6fe2 3ebd 6a6a 30bd 6a21 87bc 3852 ad3d
00000270: b5f1 34bc e9b2 6abd 088c f33b 2a23 463d
00000280: d4f7 563d 859c ea3c 0766 843d 0ed5 c93c
00000290: 1b28 a23c 8db3 12bd 70ad 24bd d94b d4bd
000002a0: 0673 5bbd 97d8 cdbc 1488 8d3b 1f3e 8cbc
000002b0: fe9a 553d 3dc8 3abd e813 c4bd 21d4 d83c
000002c0: caa4 ff3c f772 1abd 422f a33c e011 3e3d
000002d0: f48d 4dbc e1ca 9b3c 173d 633c 557b b03c
000002e0: ef29 1cbd 3de4 b23d a2e9 f23c dd1e a3bc
000002f0: bd44 943c 8d66 25bc dc19 f53b 42c9 fb3d
00000300: 6978 b33d 48e0 36be 1336 f53d 20de f1bd
00000310: ec9b b73c abf8 d53c c0b9 e13c 4c80 923c
00000320: 6c72 233b e498 9cbc b277 64be 6e39 143d
00000330: bb27 27bc 1a36 bdbd 90c5 32bc 162f bd3c
00000340: 0281 2abd b447 033c 476f 4dbd 9807 60bd
00000350: aa59 65be 4e22 2bbd 1665 8e3b 4444 98bc
00000360: dee4 1e3b 4e0b 06be 1d7a 32bc b541 b7bc
00000370: 06f7 cfbd 37e7 e4bd 1748 ae3d 515f c1bb
00000380: 83e7 1fbd 7675 113e 8395 bc3c 1548 75bd
00000390: d8b4 cbbd 0357 abbc a62c 323d cea7 7abc
000003a0: aa4e afbc 1a2e e7bc 3156 6a3d 0879 483d
000003b0: 4cf7 04be 1970 5039 d495 c1bc edea ea3c
000003c0: 02cc 18bd e1e0 91bd b6cc 893c a83b 58bd
000003d0: 578e 463d 573a b83d d7cc 1c3d 2064 5e3d
000003e0: 1c6d 523d b36b e13a 3854 7abd e8c3 a3bd
000003f0: 293a 00be 6b25 3c3d 5a44 ad3d bb9c 1cbc

fc3.bias f4 [200]
0.06609911 0.032452457 -0.08305173 0.040979836 0.07806356 -0.06416024 -0.02528872 0.080735505
0.05165413 -0.09716749 -0.06334867 -0.0011648074 -0.03352378 -0.046619315 -0.05071436 -0.13333377
-0.023422122 -0.010183486 0.04179248 0.015832357 -0.0020893137 -0.0049493643 -0.0367967 -0.015298725
-0.00020062861 -0.08153906 7.1963244e-05 -0.023527564 -0.13530275 -0.035352763 -0.13957892 -0.011141644
0.053444855 -0.01844078 0.053488687 -0.06191021 -0.068311505 0.025693297 0.051105447 0.025441296
-0.12807915 -0.085308105 -0.0914244 -0.040815096 -0.057333436 -0.09637997 -0.08886835 -0.09149016
-0.09544526 -0.05939077 0.08482535 -0.023681857 -0.03474101 -0.07737936 -0.10256102 -0.046344824
-0.06347874 -0.0922361 -0.0023640767 0.09570121 -0.09911438 -0.00093159033 -0.044874024 -0.15976363
-0.10572784 -0.047757547 -0.00066165003 -0.06347537 -0.026396725 0.06073996 -0.002990029 -0.0790606
0.009760584 -0.02066125 0.023015711 -0.112894334 0.07877801 0.038270485 -0.04952874 -0.031468213
-0.104575306 -0.07345887 -0.011351992 -0.018924287 -0.018961497 -0.027885718 -0.021504186 -0.008866985
-0.075177684 -0.051791016 -0.108559005 -0.010235382 -0.023258358 -0.021675339 -0.030168397 -0.09201816
-0.048908394 -0.024428278 0.03271113 0.032820694 0.019313283 0.00041863805 -0.0063366513 -0.008307678
-0.009902968 -0.030329991 0.013755911 -0.024190476 -0.042585954 -0.021059334 -0.05385361 -0.027094511
-0.102972426 -0.08093473 -0.10339995 -0.031784922 -0.02606867 -0.063685164 -0.0020287533 -0.020184271
0.0032082866 -0.028286828 -0.075893 -0.011870411 -0.0028434629 -0.113248184 -0.1256761 -0.041864473
0.09040092 0.059249725 0.036336284 0.061547905 -0.038523618 -0.07834978 -0.054426532 -0.026474144
-0.013874972 0.11559794 0.0670653 -0.08478519 -0.10704374 -0.04071105 0.028165441 -0.09848545
0.093714215 -0.08986105 -0.08011982 -0.09963316 -0.047187597 0.056696083 0.03782231 -0.021427127
-0.016184643 0.032037936 0.031089254 0.16959831 -0.07102104 0.031095576 0.032418497 0.019382672
0.039639115 -0.021254372 -0.079617046 0.0136418985 -0.091569655 0.06638587 -0.03281645 -0.07872304
-0.0043167453 -0.2040413 -0.03975799 -0.08782778 0.14232586 0.00064985617 -0.20282103 -0.10998728
0.022823738 -0.040229004 -0.06499532 -0.07414727 0.08392175 -0.014239451 -0.014235104 0.022168646
-0.09047906 -0.024682004 -0.061115883 0.018947218 -0.045258436 0.04519066 -0.046445448 -0.09200933
0.019853694 -0.035811637 -0.022403905 0.022870688 -0.08982347 0.019793196 -0.04093126 0.004780796
00000000: f85e 873d deec 043d 0717 aabd 79da 273d
00000010: cadf 9f3d 7266 83bd 4a2a cfbc a858 a53d
00000020: 4893 533d c0ff c6bd f3bc 81bd 73ac 98ba
00000030: 3b50 09bd e5f3 3ebd dcb9 4fbd a688 08be
00000040: c0df bfbc a3d8 26bc 972e 2b3d dcb2 813c
00000050: deec 08bb 472e a2bb 23b8 16bd 81a7 7abc
00000060: d55f 52b9 f3fd a6bd f9ea 9638 e1bc c0bc
00000070: ce8c 0abe 0fce 10bd c7ed 0ebe 718b 36bc
00000080: fee8 5a3d 1e11 97bc f416 5b3d 8f95 7dbd
00000090: e7e6 8bbd c07a d23c f253 513d 446a d03c
000000a0: 2e27 03be 04b6 aebd b73c bbbd bb2d 27bd
000000b0: 77d6 6abd dd62 c5bd 9c00 b6bd 315f bbbd
000000c0: ce78 c3bd bc43 73bd eab8 ad3d 7400 c2bc
000000d0: 974c 0ebd 1279 9ebd 830b d2bd 12d4 3dbd
000000e0: 2401 82bd 48e6 bcbd a0ee 1abb fffe c33d
000000f0: 7bfc cabd f835 74ba d3cd 37bd 1499 23be
00000100: d687 d8bd 6b9d 43bd 9572 2dba 60ff 81bd
00000110: f23d d8bc 77ca 783d 5df4 43bb 86ea a1bd
00000120: dbea 1f3c c841 a9bc 728b bc3c 2535 e7bd
00000130: 5e56 a13d 83c1 1c3d a6de 4abd d0e4 00bd
00000140: 942b d6bd 9b71 96bd b5fd 39bc 1b07 9bbc
00000150: 2455 9bbc 9770 e4bc 8c29 b0bc d546 11bc
00000160: c2f6 99bd d122 54bd 2f54 debd 4eb2 27bc
00000170: 5088 bebc 7b90 b1bc b723 f7bc 0474 bcbd
00000180: 2b54 48bd d01d c8bc 1bfc 053d fe6e 063d
00000190: e436 9e3c a67c db39 afa3 cfbb ed1c 08bc
000001a0: 0f40 22bc 9a76 f8bc 7960 613c 1b2b c6bc
000001b0: 9c6e 2ebd a084 acbc 9a95 5cbd 4ff5 ddbc
000001c0: 35e3 d2bd 1cc1 a5bd 5ac3 d3bd e830 02bd
000001d0: f78d d5bc 5e6d 82bd d5f4 04bb 7c59 a5bc
000001e0: 1e42 523b c7b9 e7bc ca6d 9bbd 1d7c 42bc
000001f0: 6459 3abb aaee e7bd 3cb1 00be 157a 2bbd
00000200: 1e24 b93d d7af 723d 5bd5 143d a819 7c3d
00000210: f1ca 1dbd d975 a0bd 5bee 5ebd 4ee0 d8bc
00000220: da53 63bc 9dbe ec3d 8859 893d dca3 adbd
00000230: c039 dbbd a1c0 26bd 36bb e63c bdb2 c9bd
00000240: 3ded bf3d 1209 b8bd dc15 a4bd 780c ccbd
00000250: c847 41bd 273a 683d 91eb 1a3d f187 afbc
00000260: a895 84bc 363a 033d e4ae fe3c 2eab 2d3e
00000270: 7b73 91bd 26bc fe3c 42c9 043d 69c8 9e3c
00000280: a05c 223d a61d aebc 430e a3bd 4582 5f3c
00000290: df88 bbbd 51f5 873d 8b6a 06bd 8c39 a1bd
000002a0: 7c73 8dbb 34f0 50be 46d9 22bd 0ddf b3bd
000002b0: dfbd 113e 1c5b 2a3a 51b0 4fbe 0341 e1bd
000002c0: d9f8 ba3c 2bc7 24bd 441c 85bd 86da 97bd
000002d0: 2bdf ab3d 964c 69bc 5b3a 69bc 059b b53c
000002e0: 164d b9bd ea31 cabc a654 7abd 3237 9b3c
000002f0: e960 39bd d719 393d 953d 3ebd 636f bcbd
00000300: 37a4 a23c 39af 12bd 6588 b7bc 4f5b bb3c
00000310: 5ef5 b7bd 5725 a23c 89a7 27bd 39a8 9c3b

fc4.weight f4 [100, 200]
-0.01215366 -0.097912155 -0.07492115 -0.01672206 -0.099073924 -0.021763435 0.025310103 -0.07846238
-0.11707894 -0.12109736 0.023854142 -0.07078343 -0.017472995 -0.01840231 0.11289855 -0.010435405
0.014943828 -0.10624696 0.11823601 -0.066254206 -0.099315 -0.009845971 0.059730258 -0.018109873
-0.104380816 9.231313e-05 -0.010315512 0.12719949 0.038546193 0.044213254 -0.098784626 0.0047190506
-0.08147275 0.0070786984 -0.04880323 -0.030532815 0.009989228 0.02577027 -0.12214833 -0.12058932
0.0744188 0.100233674 0.04207504 0.0012995976 0.12496218 -0.099720344 0.011190823 0.019567423
-0.05276329 -0.12344603 0.05686326 -0.08124815 0.054386646 -0.008756067 -0.02506277 -0.027625207
0.07513642 0.07525355 0.003929275 -0.010384811 0.1158124 0.012163244 0.06871727 -0.021898264
0.041437645 0.05637889 0.025104536 0.060098726 -0.028440755 -0.013326026 -0.07189783 -0.10413211
0.005967117 -0.08110653 -0.061863918 0.029810905 -0.00069505704 -0.08356559 -0.019280666 -0.0593439
-0.012476336 0.08073562 0.029324329 -0.13424028 -0.025437186 -0.05588705 -0.034537125 -0.04971496
0.014539803 0.036115978 -0.089208595 0.11160858 -0.08697119 0.014147703 -0.060845822 -0.013089403
0.12613045 -0.13861293 0.0061544036 -0.038652256 -0.023524772 0.08350028 -0.014471215 -0.12628637
-0.115092404 0.09778119 -0.10355882 0.0047506965 0.11360544 -0.12605296 -0.051493037 -0.046826992
-0.024583265 -0.028021842 -0.07498035 -0.009758895 0.10775154 0.026879095 -0.1318367 -0.022766476
0.011081026 -0.023260316 0.01277328 0.10847598 0.081068985 -0.095153935 0.0012003834 -0.090732574
0.009892525 -0.026217986 -0.03788575 0.08464743 -0.06359318 0.014267299 -0.10354173 -0.12787545
0.09051946 0.020615699 -0.10620447 -0.018489627 0.018644486 -0.0436316 -0.026087888 -0.04435523
-0.13226083 -0.06651184 0.08169578 0.056670398 -0.07761005 0.026084298 0.13142955 0.11187821
-0.017999157 -0.048220206 -0.0896228 -0.07913983 -0.020441616 0.010116709 -0.034759726 0.023267785
0.0034979796 0.0059399437 -0.10946462 -0.11595411 0.096573114 0.005352385 0.045755234 0.04862984
0.03578137 -0.02848869 -0.05345745 0.07147592 -0.042389724 0.015968654 0.0061049447 -0.058843583
-0.07307961 -0.03461112 0.055213813 0.12450833 0.013435944 0.015947865 -0.054221086 -0.005942851
-0.09790563 -0.0703156 0.12150907 -0.004196039 0.0371876 0.02157535 -0.07363392 -0.11742849
-0.08982195 -0.027717048 0.005489036 -0.103113845 -0.012271513 -0.009677399 0.0436398 -0.069715
0.09109349 0.030252086 -0.028376138 -0.0874377 0.039791856 -0.053787947 -0.03252485 -0.109031074
-0.06914364 0.027812783 0.06273107 -0.012738304 -0.01695063 -0.026892008 -0.027700005 0.054341696
0.01878856 -0.026724353 0.02533969 -0.0508988 -0.042046472 -0.027592503 -0.057929117 0.04073419
-0.0019270277 0.0057341717 0.008431764 0.04200953 0.014569761 -0.03990665 -0.013349163 0.072627954
-0.11855447 0.014691977 0.0038430763 0.059187625 0.043613814 0.023260143 -0.022144206 -0.034414828
-0.044823993 -0.062075965 0.047286406 -0.03934057 -0.051879425 -0.042058613 0.03897654 -0.030912792
0.03160706 -0.03002246 0.0048508532 0.11871796 0.011044262 0.022832146 -0.06461525 0.020503508
00000000: 2520 47bc 2b86 c8bd 4370 99bd b4fc 88bc
00000010: 45e7 cabd 3b49 b2bc 2257 cf3c e2b0 a0bd
00000020: 15c7 efbd e501 f8bd c369 c33c e7f6 90bd
00000030: 8723 8fbc 71c0 96bc 5b37 e73d 43f9 2abc
00000040: f5d6 743c 0298 d9bd b925 f23d 49b0 87bd
00000050: aa65 cbbd ff50 21bc b7a7 743d 285b 94bc
00000060: 9cc5 d5bd 3c98 c138 6502 29bc 9540 023e
00000070: 9de2 1d3d f518 353d 984f cabd 44a2 9a3b
00000080: 2fdb a6bd 6df4 e73b e5e5 47bd f41f fabc
00000090: dca9 233c 2c1c d33c e728 fabd 89f7 f6bd
000000a0: e268 983d 5047 cd3d e156 2c3d 4257 aa3a
000000b0: 2cec ff3d 2e3a ccbd b759 373c dc4b a03c
000000c0: 521e 58bd 46d1 fcbd 73e9 683d 6e65 a6bd
000000d0: 88c4 5e3d 9b75 0fbc 7050 cdbc 424e e2bc
000000e0: 20e1 993d 891e 9a3d 26c1 803b 0e25 2abc
000000f0: 0d2f ed3d 5848 473c a4bb 8c3d fd63 b3bc
00000100: 85ba 293d 8ded 663d 07a8 cd3c 152a 763d
00000110: 96fc e8bc 6755 5abc 2b3f 93bd 3743 d5bd
00000120: ce87 c33b 2e1b a6bd 0565 7dbd 0036 f43c
00000130: 7d34 36ba 7024 abbd 7df2 9dbc 9712 73bd
00000140: 8c69 4cbc b758 a53d 9339 f03c 4976 09be
00000150: a561 d0bc d2e9 64bd cd76 0dbd eaa1 4bbd
00000160: 5b38 6e3c 59ee 133d ffb2 b6bd 0a93 e43d
00000170: f41d b2bd c4cb 673c 7839 79bd ef74 56bc
00000180: 5728 013e 8cf0 0dbe e1aa c93b d451 1ebd
00000190: 06b7 c0bc 3202 ab3d ad18 6dbc 3751 01be
000001a0: 91b5 ebbd 8141 c83d a616 d4bd bbab 9b3b
000001b0: f8a9 e83d 0714 01be 5dea 52bd a9cd 3fbd
000001c0: d862 c9bc 108e e5bc 4c8f 99bd c6e3 1fbc
000001d0: d7ac dc3d 8c31 dc3c 3300 07be c380 babc
000001e0: 318d 353c 6b8c bebc 0547 513c a828 de3d
000001f0: 7f07 a63d 11e0 c2bd 2f56 9d3a 00d2 b9bd
00000200: 4214 223c 1ac7 d6bc 172e 1bbd a25b ad3d
00000210: 243d 82bd 64c1 693c b00d d4bd c8f1 02be
00000220: 4462 b93d 41e2 a83c bb81 d9bd 8f77 97bc
00000230: 52bc 983c 0cb7 32bd 44b6 d5bc d4ad 35bd
00000240: 626f 07be 5c37 88bd 1e50 a73d 381f 683d
00000250: 05f2 9ebd bdae d53c 7895 063e 6720 e53d
00000260: f872 93bc 8d82 45bd 298c b7bd 1014 a2bd
00000270: 2d75 a7bc 8ec0 253c 3760 0ebd 159c be3c
00000280: 5c3e 653b dca3 c23b fd2e e0bd 5979 edbd
00000290: 20c8 c53d 0f63 af3b d769 3b3d 1530 473d
000002a0: 7c8f 123d 1d61 e9bc 33f6 5abd f861 923d
000002b0: d9a0 2dbd b2d0 823c fd0b c83b f805 71bd
000002c0: c3aa 95bd 64c4 0dbd e127 623d 39fe fe3d
000002d0: 6f22 5c3c 19a5 823c ee16 5ebd 3fbc c2bb
000002e0: bf82 c8bd a001 90bd bfd9 f83d ed7e 89bb
000002f0: 0652 183d cabe b03c 61cd 96bd 597e f0bd
00000300: 92f4 b7bd dd0e e3bc 5fdd b33b 5a2d d3bd
00000310: 750e 49bc f48d 1ebc a6bf 323d bdc6 8ebd
00000320: 398f ba3d 39d3 f73c 1375 e8bc 8912 b3bd
00000330: c9fc 223d c050 5cbd c738 05bd af4b dfbd
00000340: 2e9b 8dbd a2d7 e33c 2679 803d 52b4 50bc
00000350: 0cdc 8abc a14c dcbc 1feb e2bc 6695 5e3d
00000360: 77ea 993c 08ed dabc 2e95 cf3c 437b 50bd
00000370: ec38 2cbd ac09 e2bc 1547 6dbd e5d8 263d
00000380: 5294 fcba b8e5 bb3b 6225 0a3c 2f12 2c3d
00000390: 02b6 6e3c 2875 23bd 73b6 5abc f7bd 943d
000003a0: b0cc f2bd 9eb6 703c 1fdc 7b3b b96e 723d
000003b0: 66a4 323d 0e8c be3c c467 b5bc 90f6 0cbd
000003c0: 5d99 37bd 5e43 7ebd 64af 413d 9423 21bd
000003d0: 857f 54bd a745 2cbd dda5 1f3d d33c fdbc
000003e0: 6876 013d a9f1 f5bc e8f3 9e3b 6722 f33d
000003f0: fef2 343c 7b0a bb3c 0055 84bd f9f6 a73c

fc4.bias f4 [100]
-0.009015084 -0.09125044 -0.005182745 -0.13942973 -0.029002722 -0.012171002 0.064588815 -0.0497
0.0008771997 -0.07961082 -0.06320727 -0.17151166 -0.046160534 0.027062714 -0.107277825 -0.12243188
-0.11856467 -0.04314542 -0.011361677 0.05278321 -0.08623545 -0.07518973 0.04486228 -0.0758409
-0.14617413 -0.06812934 -0.014700072 -0.036566697 -0.061129313 0.009163639 -0.12547931 -0.040418938
-0.007626624 0.01767799 0.02875029 0.0032534024 -0.027528116 -0.021714017 -0.050088804 0.009617984
0.03828827 0.0725172 -0.004168492 0.13475727 -0.0775469 -0.024158085 0.09051284 0.0036433921
-0.041597176 -0.082729995 -0.05460805 0.23051909 0.09644171 -0.013661897 -0.07638587 -0.03820347
-0.059695642 -0.029316368 0.041680392 -0.035404205 0.086335436 0.07339016 -0.09124352 0.008799421
-0.06143859 -0.08907552 0.0019018463 -0.052300487 -0.030525364 0.096294574 0.032353524 -0.00394506
-0.034324937 -0.009195919 -0.083500445 -0.122576736 -0.059234317 0.0050590364 -0.014592151 -0.085682236
0.11162358 0.13204226 -0.0005778637 0.011843148 -0.10196962 -0.105007075 0.06611539 0.0067349877
0.009543688 0.122878365 0.004512115 0.1167891 -0.017588116 -0.0879553 -0.0077535245 0.19246452
-0.012541992 -0.080962785 -0.21562183 0.001964213
00000000: 01b4 13bc 83e1 babd 04d4 a9bb abc6 0ebe
00000010: 1e97 edbc e268 47bc 2447 843d 3a92 4bbd
00000020: e0f3 653a ff0a a3bd d072 81bd c1a0 2fbe
00000030: d412 3dbd a0b2 dd3c 7ab4 dbbd 91bd fabd
00000040: 09d2 f2bd 40b9 30bd 5426 3abc 3533 583d
00000050: 369c b0bd 13fd 99bd 83c1 373d 7952 9bbd
00000060: acae 15be 6587 8bbd 92d8 70bc f6c6 15bd
00000070: bb62 7abd 1623 163c a67d 00be 548e 25bd
00000080: c2e8 f9bb 6fd1 903c ba85 eb3c 0937 553b
00000090: a582 e1bc 98e1 b1bc eb29 4dbd c094 1d3c
000000a0: 29d4 1c3d e683 943d d897 88bb cffd 093e
000000b0: e9d0 9ebd 2de7 c5bc cc5e b93d fac5 6e3b
000000c0: cd61 2abd 586e a9bd b1ac 5fbd 320d 6c3e
000000d0: 3b83 c53d 26d6 5fbc 3270 9cbd 3e7b 1cbd
000000e0: 6b83 74bd e128 f0bc 0fb9 2a3d 0004 11bd
000000f0: a2d0 b03d 954d 963d e2dd babd 722b 103c
00000100: 08a7 7bbd 3a6d b6bd 5f47 f93a 0939 56bd
00000110: 5410 fabc 1736 c53d 2185 043d 9045 81bb
00000120: 4e98 0cbd 7baa 16bc 4802 abbd 8309 fbbd
00000130: af9f 72bd 46c6 a53b eb13 6fbc 2b7a afbd
00000140: e79a e43d 1636 073e c77b 17ba c309 423c
00000150: 73d5 d0bd f30d d7bd 8167 873d 2cb1 dc3b
00000160: 215d 1c3c a7a7 fb3d 5dda 933b 202f ef3d
00000170: f414 90bc e921 b4bd 4711 febb 6b15 453e
00000180: ed7c 4dbc d1cf a5bd f8cb 5cbe 07ba 003b
