iknet.pth (torch, 840603 bytes, 12 tensors)

layers.0.weight f4 [400, 7]
0	0x3e876985	0.26447693
1	0x3eb01b74	0.34395945
2	0xbe84b9ed	-0.259231
3	0xbe272ff4	-0.16326886
4	0xbda74784	-0.081679374
5	0xbe237b2e	-0.15964958
6	0xbea9b962	-0.33149248
7	0x3f2912f7	0.66044563
8	0xbdec5924	-0.1154044
9	0xbe1e47ba	-0.15457049
10	0x3e5660fb	0.20935433
11	0x3e3bdbe2	0.18345597
12	0x3c44d750	0.012014225
13	0x3e708992	0.23489979
14	0x3ec78096	0.3896529
15	0xbe302a87	-0.17203723
16	0xbea4be27	-0.32176325
17	0xbd5a20e6	-0.05325403
18	0x3dd8ecd5	0.10592047
19	0xbc14592d	-0.009054464
20	0x3e720a7c	0.23636812
21	0xbf0fa2b3	-0.56107634
22	0x3f335e54	0.7006581
23	0x3d29ca65	0.041452784
24	0x3e8f4297	0.27980492
25	0xbdf25d6a	-0.118342236
26	0xbe135d4c	-0.14391059
27	0xbe1e270f	-0.15444587
28	0xbe1f18a6	-0.15536746
29	0xbe9e8315	-0.30959383
30	0xbed1c06e	-0.40967125
31	0x3d763c42	0.06011606
32	0xbe933232	-0.28749233
33	0x3debf943	0.11522152
34	0xbe279247	-0.16364394
35	0x3d8a40e0	0.06750655
36	0x3e6e8115	0.23291428
37	0xbedeea21	-0.43538
38	0xbdd966be	-0.106153
39	0x3dde3ec0	0.10851812
40	0xbe0160a0	-0.12634516
41	0xbdd4c7dd	-0.103896834
42	0xbd8871e9	-0.06662352
43	0xbe5015cf	-0.2032082
44	0xbef0c782	-0.47027212
45	0x3db955fe	0.09049605
46	0xbc805334	-0.015664674
47	0x3e11959d	0.14217229
48	0x3d84cf7a	0.064848855
49	0xbe1c7f1b	-0.15282862
50	0xbe831b09	-0.25606564
51	0xbe96b7db	-0.29437146
52	0x3c324201	0.010879994
53	0x3e0909bc	0.1338262
54	0x3da72ec3	0.08163216
55	0x3d30422a	0.04303185
56	0xbeb393be	-0.35073656
57	0x3e291da0	0.16515207
58	0xbe8d8ef4	-0.27648127
59	0x3eccf361	0.40029433
60	0x3d99daf8	0.07512468
61	0xbdd84dd4	-0.105617195
62	0x3e98668b	0.29765734
63	0xbe8943c1	-0.26809505
64	0xbcbf846b	-0.023378571
65	0x3f018d7a	0.506065
66	0x3e60a2ee	0.21937153
67	0x3cc0043d	0.023439521
68	0xbe6204e9	-0.22072186
69	0x3d2b02fd	0.041750897
70	0xbe975f33	-0.2956482
71	0x3e80bfe8	0.25146413
72	0x3ec2e74f	0.380671
73	0xbe017fcd	-0.12646408
74	0x3ded2b49	0.115805216
75	0xbdc4ae2e	-0.09603535
76	0x3e264eaa	0.16240945
77	0x3eac35e8	0.33634877
78	0xbe8ef6c7	-0.2792265
79	0x3d106993	0.035256933
80	0xbe36bfb5	-0.17846568
81	0x3e6be602	0.2303696
82	0x3c5dff8b	0.013549696
83	0xbd5e923b	-0.054338675
84	0x3da28f46	0.079374835
85	0x3f161d68	0.5863862
86	0xbf4a2243	-0.7895853
87	0xbce47adc	-0.027890615
88	0xbe5cd606	-0.21566018
89	0xbde24c62	-0.11049725
90	0xbd8715e0	-0.06595969
91	0x3f2292d4	0.6350529
92	0xbf0ef040	-0.5583534
93	0x3ca7a400	0.020463943
94	0xbd99d145	-0.07510618
95	0xbc6d3257	-0.014477334
96	0xbde78a31	-0.11305655
97	0xbe4780e9	-0.19482769
98	0xbd0b4b25	-0.03400721
99	0x3f06fc28	0.5272851
100	0xbed929a1	-0.42414573
101	0x3d9a56b9	0.07536072
102	0xbe10b387	-0.14130984
103	0xbe087787	-0.13326846
104	0xbe0280b0	-0.12744403
105	0xbe59e016	-0.21276888
106	0x3dafa804	0.08576968
107	0x3ef6f10c	0.4823078
108	0x3e15258f	0.14565109
109	0x3d51552f	0.051106628
110	0xbe0b5814	-0.13607818
111	0xbf1f0c6d	-0.62128335
112	0xbf1553b9	-0.58330876
113	0xbe706762	-0.23476937
114	0x3e279e3b	0.16368954
115	0xbddadce8	-0.10686666
116	0x3e4975d7	0.19673859
117	0x3d95a710	0.07307255
118	0x3e32b155	0.1745046
119	0xbe07a3db	-0.132461
120	0x3e5396e7	0.20663033
121	0xbe8aaef1	-0.27086595
122	0xbd5e8d77	-0.05433413
123	0xbda860f5	-0.08221618
124	0xbd3379e1	-0.043817405
125	0xbd822e67	-0.06356507
126	0xbee929b3	-0.45539626
127	0xbe8f5873	-0.2799717
128	0xbd3c3c6d	-0.045956064
129	0xbeedd04e	-0.46447986
130	0xbe2f183f	-0.17099093
131	0x3d2e2a6f	0.042520937
132	0xbeb2a9f6	-0.34895295
133	0xbe2bb8dd	-0.16769738
134	0x3e91c724	0.28472245
135	0xbdc4a8f6	-0.09602539
136	0x3d0ec19b	0.034852605
137	0x3e42363e	0.18966004
138	0x3dcad2ab	0.09903463
139	0xbed90b35	-0.42391363
140	0xbefb8988	-0.49128366
141	0x3d602d76	0.054730855
142	0x3e697d1d	0.22801633
143	0xbe9caf7e	-0.3060264
144	0x3d3a5e7a	0.045500256
145	0x3e86af2f	0.2630553
146	0x3e38c298	0.18042982
147	0xbe8de33a	-0.27712423
148	0xbed5a749	-0.4172919
149	0xbe7863c6	-0.2425681
150	0xbf262577	-0.64900917
151	0xbe8419c6	-0.25800914
152	0xbdc0d9ca	-0.0941654
153	0xbe908faa	-0.28234607
154	0xbe1af8bc	-0.15133947
155	0xbf187da8	-0.59566736
156	0x3eac9d2a	0.33713657
157	0x3d05ecad	0.032696415
158	0xbecfe156	-0.40601605
159	0x3d297d86	0.041379474
160	0xbe282c70	-0.16423202
161	0xbe86a728	-0.26299405
162	0x3db1018c	0.08642873
163	0x3cabb7d2	0.020961676
164	0xbe33d63f	-0.17562197
165	0x3c4a626d	0.012352568
166	0xbe7bbd78	-0.24583995
167	0xbe828dc3	-0.2549878
168	0x3ea54666	0.32280272
169	0x3e2bd5cc	0.16780776
170	0xbe2f9656	-0.17147192
171	0xbee57faf	-0.44823977
172	0x3e8cadf8	0.27476478
173	0x3c3dbbc4	0.011580411
174	0xbe61258a	-0.21986976
175	0x3e901adc	0.28145492
176	0x3e5d8d09	0.21635832
177	0xbdbe1933	-0.0928215
178	0x3e38032b	0.17969958
179	0x3cf5629a	0.029954243
180	0x3e205cf3	0.15660457
181	0xbe72b0e1	-0.23700286
182	0x3df7d584	0.12101272
183	0xbc3d0b2d	-0.011538309
184	0xbe918316	-0.28420323
185	0xbdd0b84a	-0.101914
186	0xbe51d17e	-0.20490071
187	0xbe574ec6	-0.21026143
188	0xbed34956	-0.41266888
189	0xbf951460	-1.1646843
190	0x3eb0a28d	0.34499016
191	0x3ea20846	0.31646937
192	0x3ec6589e	0.38739485
193	0xbdc7bf3b	-0.09753271
194	0xbef40bf4	-0.4766537
195	0xbe08ff01	-0.13378526
196	0xbe4af7b9	-0.19821061
197	0xbd9bceff	-0.07607841
198	0x3d974b98	0.07387465
199	0x3ea66853	0.32501468
200	0xbe4c7e4a	-0.1997005
201	0xbe21b077	-0.15789972
202	0xbe421fc5	-0.18957432
203	0xbf20d598	-0.6282592
204	0x3dcc4934	0.099749
205	0x3e9eb48f	0.3099713
206	0xbec0cfd3	-0.37658557
207	0x3e301080	0.17193794
208	0xbd7a013d	-0.061036337
209	0x3dadb1a4	0.08481148
210	0x3f28f1c3	0.659939
211	0xbf000600	-0.50009155
212	0x3e17e7f9	0.14834584
213	0xbe2e3444	-0.17012125
214	0xbeb816c2	-0.35954863
215	0x3e804ebd	0.25060073
216	0xbe7f84ae	-0.24952957
217	0xbebfd65d	-0.37468234
218	0x3ede8f39	0.43468645
219	0x3d819110	0.063264966
220	0xbdc5a59f	-0.0965073
221	0x3e1be0dd	0.15222497
222	0x3d0fca4b	0.03510503
223	0x3dd55cd1	0.10418094
224	0x3da6ac5f	0.08138346
225	0xbe5fafc2	-0.2184439
226	0xbdb22086	-0.086976096
227	0xbf78b2f7	-0.9714808
228	0x3e952c2c	0.29135263
229	0x3e692fc8	0.22772133
230	0xbdfef6e1	-0.12449432
231	0x3d9fb0e5	0.07797412
232	0x3df6b587	0.12046342
233	0xbf243e9f	-0.6415805
234	0x3d7ef644	0.062246576
235	0xbe8f78f6	-0.28021973
236	0x3e8c994e	0.27460712
237	0x3e90b2aa	0.2826131
238	0x3de0d1fb	0.109775506
239	0xbd762419	-0.06009302
240	0xbf059806	-0.52185094
241	0xbed18e18	-0.4092872
242	0xbe11241d	-0.14173932
243	0xbdd680be	-0.104737744
244	0x3e85d005	0.2613527
245	0x3ec556c4	0.3854276
246	0x3f24e27d	0.64408094
247	0xbe5ef11c	-0.21771663
248	0xbe6096d7	-0.21932541
249	0xbe923ecc	-0.28563535
250	0x3e1dc040	0.15405369
251	0xbe6bed57	-0.23039757
252	0x3ed7c0fb	0.4213942
253	0xbdbc4a8c	-0.09193906
254	0xbe38490c	-0.17996615
255	0xbe26844b	-0.16261403

layers.0.bias f4 [400]
0	0xbdcaf078	-0.09909147
1	0xbeab3a34	-0.33442843
2	0xbe74bd4c	-0.23900336
3	0x3d1778c1	0.036980394
4	0x3e8ee4e6	0.2790901
5	0xbd9abcad	-0.07555518
6	0x3e2b17c6	0.16708288
7	0x3deb56e3	0.11491182
8	0xbddef2c5	-0.10886148
9	0xbe1fb499	-0.15596236
10	0xbdf3d776	-0.1190633
11	0xbee57dbd	-0.44822493
12	0x3e306ac0	0.17228222
13	0x3cadf9ea	0.021237332
14	0x3e80a32e	0.25124496
15	0xbe6cd1ab	-0.23126857
16	0xbcf2a5c6	-0.029620063
17	0xbe964b6b	-0.29354414
18	0xbd969b88	-0.07353884
19	0x3dd11f10	0.10211003
20	0xbe8a0f7e	-0.26964945
21	0x3e0f848a	0.14015403
22	0xbe2a639d	-0.16639562
23	0xbea7ce4c	-0.3277458
24	0x3d815105	0.063142814
25	0x3d56631e	0.05234062
26	0x3e8943b5	0.2680947
27	0xbe02db14	-0.12778884
28	0x3d4cbae2	0.049982913
29	0xbb9d3809	-0.0047979397
30	0xbdf87ff5	-0.12133781
31	0x3d85b242	0.065281406
32	0xbe726dae	-0.23674652
33	0xbdce3144	-0.100679904
34	0xbde93a8b	-0.11388119
35	0x3e13f6e0	0.14449644
36	0xbe447aff	-0.19187544
37	0xbe85677c	-0.26055515
38	0x3e535add	0.2064013
39	0xbebc6781	-0.36797717
40	0xbc5e9033	-0.013584184
41	0x3e1c654d	0.15273018
42	0xbebafa9b	-0.36519322
43	0x3dbe945c	0.09305641
44	0xbeae056d	-0.33988515
45	0xbe444206	-0.19165811
46	0x3d9316b7	0.07182067
47	0xbeb63e22	-0.3559428
48	0xbdd25dd0	-0.102717996
49	0xbd8c8d2a	-0.068628624
50	0xbe4552ab	-0.19269817
51	0x3e0b449a	0.13600388
52	0x3b68957a	0.0035489486
53	0x3dd32251	0.1030928
54	0x3e040330	0.12891841
55	0x3dadb3b9	0.08481545
56	0xbd11bb04	-0.035578743
57	0x3c8719f7	0.016491873
58	0xbe351f46	-0.17687711
59	0xbe7c826c	-0.24659127
60	0xbcd63fb1	-0.026153417
61	0xbe2a6de3	-0.16643481
62	0x3dea8ef9	0.11453051
63	0xbe983a8d	-0.2973217
64	0x3c4b3853	0.012403565
65	0x3e7469a0	0.23868418
66	0xbecc8b4d	-0.39950028
67	0xbe9863e7	-0.2976372
68	0xbe9bad88	-0.3040583
69	0x3de0e7be	0.10981701
70	0x3e209e1a	0.15685311
71	0x3dfa75ac	0.122294754
72	0xbe0b36d8	-0.1359514
73	0x3d13b2f6	0.036059342
74	0xbeb49c3e	-0.35275453
75	0xbea478f6	-0.32123536
76	0x3deef826	0.11668424
77	0xbe3e533c	-0.18586439
78	0xbe9db134	-0.30799258
79	0x3d4da896	0.050209604
80	0xbd80f117	-0.06295984
81	0xbe40e361	-0.18836738
82	0xbeafe1b1	-0.34351876
83	0xbc136204	-0.008995537
84	0x3e9a2788	0.30108285
85	0xbde5f32c	-0.11228022
86	0x3e35c035	0.17749102
87	0x3e261e9d	0.16222616
88	0x3e425cb1	0.18980671
89	0x3d675fc4	0.056487814
90	0x3e12e200	0.14344025
91	0xbe8c3620	-0.27385044
92	0xbeb056ef	-0.34441325
93	0x3db4b67d	0.088238694
94	0x3e726407	0.2367097
95	0x3e3d3eb8	0.18480957
96	0xbda1a241	-0.078922756
97	0x3daa978e	0.08329688
98	0xbe1639a1	-0.14670421
99	0xbe2ab2a4	-0.16669708
100	0xbe868612	-0.26274163
101	0xbd377384	-0.0447879
102	0xbe01b224	-0.12665612
103	0xbb07832b	-0.0020677547
104	0x3de648a4	0.11244324
105	0xbeb62406	-0.3557436
106	0x3d5ce87b	0.05393265
107	0x3dba5e6c	0.09100041
108	0x3dfb6bd6	0.122764274
109	0x3e0ac3d9	0.13551272
110	0x3d84e991	0.06489862
111	0xbcbdb708	-0.023158565
112	0xbeb46d5f	-0.35239694
113	0x3d924515	0.071420826
114	0xbe7bf0f7	-0.2460364
115	0xbd8645b5	-0.06556264
116	0x3e5b8914	0.2143901
117	0x3bef6d79	0.0073067513
118	0xbeda3497	-0.42618248
119	0x3dbf5a50	0.093433976
120	0x3e035238	0.12824333
121	0xbe04a8d9	-0.12955035
122	0xbec8b8d9	-0.39203528
123	0xbebfa795	-0.37432542
124	0xbd12ed87	-0.035871055
125	0xbe925d94	-0.2858702
126	0xbd5368bd	-0.051613558
127	0xbd85cad1	-0.06532825
128	0x3d8f7a5a	0.070057586
129	0xbe06e909	-0.13174833
130	0x3cb9a917	0.022663636
131	0x3e46a922	0.19400457
132	0xbd16cc00	-0.036815643
133	0x3e025f4c	0.12731665
134	0xbcc03842	-0.023464326
135	0x3e8a2443	0.2698079
136	0xbe64f1c4	-0.22357851
137	0xbeb49062	-0.35266405
138	0x3e2fb2c4	0.17158037
139	0xbc5b3ae2	-0.013380738
140	0xbd318236	-0.04333707
141	0xbe2aa938	-0.16666114
142	0xbebba9f4	-0.366531
143	0x3c8fb963	0.017544454
144	0xbe4d9198	-0.20075071
145	0xbe94a119	-0.29029158
146	0xbde6a9b1	-0.11262835
147	0xbebb0d05	-0.3653337
148	0xbdae1ded	-0.08501802
149	0xbc900c07	-0.01758386
150	0x3ddfe8f1	0.10933102
151	0x3d89f8d2	0.06736912
152	0xbc8a42cd	-0.016877556
153	0xbdd7b31c	-0.10532209
154	0x3e03bb93	0.12864523
155	0xbea27e5a	-0.31737024
156	0xbb4bfb2b	-0.003112505
157	0xbd35803d	-0.04431175
158	0xbdd8a87e	-0.10579012
159	0x3e071e8b	0.13195245
160	0xbd6663c5	-0.05624749
161	0xbe3dfce5	-0.18553503
162	0xbe7ceddf	-0.24700116
163	0xbdbe59ec	-0.09294495
164	0x3dae5e56	0.08514087
165	0xbe9569de	-0.29182333
166	0xbeb9a1e1	-0.36256316
167	0xbeb73af8	-0.35787177
168	0xbd91dfc0	-0.07122755
169	0xbe3784f9	-0.17921819
170	0x3e7f18ac	0.24911755
171	0xbe776ec4	-0.24163347
172	0x3e00edf7	0.12590776
173	0xbda77d7e	-0.081782326
174	0xbccbf48e	-0.024896886
175	0xbd3afeb0	-0.045653045
176	0x3e3daf81	0.1852398
177	0x3da34b15	0.07973305
178	0x3d125f9d	0.035735715
179	0xbdbbb8d1	-0.0916611
180	0x3dbc15f1	0.091838725
181	0x3da912d0	0.08255541
182	0xbea77021	-0.32702735
183	0xbe8eb999	-0.27875975
184	0xbc53d20e	-0.012928499
185	0xbe37a7f2	-0.1793516
186	0x3c41f975	0.01183926
187	0x3d543216	0.05180558
188	0x3e0e35aa	0.13887659
189	0xbc3293e8	-0.010899521
190	0x3b2ddfc6	0.0026531084
191	0xbe8fb084	-0.28064358
192	0xbdb35cdb	-0.08757945
193	0xbcf8e9f8	-0.030385002
194	0xbe3c1180	-0.1836605
195	0xbe2d66a7	-0.1693369
196	0xbeb5e7f9	-0.35528544
197	0xbcacc348	-0.021089211
198	0x3e39e44b	0.18153493
199	0xbe8dff6e	-0.2773394
200	0xbc94528f	-0.018105773
201	0xbe5ea41a	-0.21742287
202	0xbe1fea1e	-0.15616652
203	0xbe43fbe3	-0.19139056
204	0xbe3368a9	-0.17520393
205	0xbe2db91c	-0.16965145
206	0xbeb5085b	-0.35357937
207	0x3e26de3e	0.16295716
208	0x3e032de6	0.12810478
209	0xbe43d3fb	-0.19123833
210	0x3e347f6f	0.17626737
211	0xbe85fed3	-0.26170978
212	0xbc06dfc9	-0.0082320655
213	0xbde97139	-0.11398549
214	0xbe91d56b	-0.28483137
215	0x3dc3014a	0.0952173
216	0x3de9b7f6	0.11412041
217	0x3c6b2f8c	0.014354598
218	0xbc59d02e	-0.013294263
219	0x3e6ad443	0.22932534
220	0x3cdbe4b3	0.02684245
221	0xbe4da10f	-0.2008097
222	0x3e2321e6	0.159309
223	0x3e46667a	0.19375029
224	0xbebabb72	-0.36471134
225	0xbca85fb9	-0.020553457
226	0x3e59db0e	0.21274969
227	0xbdeaa97c	-0.11458108
228	0xbdf088e3	-0.11744859
229	0xbda194bd	-0.07889698
230	0x3e0972b8	0.13422668
231	0xbe9799d6	-0.29609555
232	0xbe8a47f3	-0.27008018
233	0x3e28cf84	0.16485411
234	0x3dbf3ecc	0.093381494
235	0xbed89980	-0.4230461
236	0xbcb247da	-0.021762777
237	0xbd0be3b2	-0.034152694
238	0x3d97a72e	0.07404934
239	0x3d7ecae1	0.0622052
240	0x3e00e2d3	0.12586527
241	0xbe8cb4ac	-0.27481592
242	0xbb070874	-0.0020604404
243	0x3e83ae44	0.25718892
244	0xbdf9bcf8	-0.12194246
245	0xbeaf5143	-0.34241685
246	0x3db273fc	0.087135285
247	0x3dbc27a0	0.09187245
248	0xbe693985	-0.22775848
249	0xbe68ec7a	-0.22746459
250	0xbe44c1fd	-0.19214626
251	0xbe7dd59f	-0.24788521
252	0xbe99a91c	-0.30011833
253	0x3d6ddb1f	0.0580703
254	0xbddc4454	-0.1075522
255	0xbdf4f9e1	-0.11961723

layers.3.weight f4 [300, 400]
0	0xbc9a46ba	-0.018832553
1	0xbd6655b8	-0.05623409
2	0xbcadadfe	-0.02120113
3	0x3d34b4e0	0.04411781
4	0x3d0ccc4c	0.03437452
5	0xbdc4d4b1	-0.0961088
6	0xbd669bea	-0.056301035
7	0xbe06c737	-0.13161932
8	0xbdd45f59	-0.103697486
9	0xbbbf50ce	-0.00583849
10	0xbbbd9a74	-0.0057862345
11	0xbce5060e	-0.027956989
12	0x3c28a26d	0.010292632
13	0x3c7659bb	0.015036042
14	0xbd21aefb	-0.039473515
15	0x3e5dfaca	0.216777
16	0xbd5e4ec5	-0.05427434
17	0xbc5be200	-0.013420582
18	0x3dd911f3	0.10599127
19	0x3d9c0615	0.076183476
20	0xbd464246	-0.048403047
21	0x3d81f7f9	0.06346125
22	0x3d4308cc	0.04761581
23	0xbccf3203	-0.025292402
24	0xbd4376c8	-0.0477207
25	0x3c98e91d	0.018665845
26	0xbd4a77a2	-0.049430497
27	0x3e696b84	0.2279492
28	0xbd6c99c6	-0.057763837
29	0xbd1c049b	-0.03809033
30	0x3dfe5cec	0.12420067
31	0xbdb7e3ef	-0.08979022
32	0xbe3edd38	-0.18639076
33	0xbd516f7d	-0.051131714
34	0xbcfda103	-0.030960565
35	0x3d73356b	0.059377115
36	0xbc99c2c6	-0.018769633
37	0xbda54edf	-0.08071684
38	0x3d442105	0.047883052
39	0x3d14b098	0.036301225
40	0xbd5f5b5e	-0.054530494
41	0x3d74ddba	0.059781767
42	0x3c25708d	0.010097635
43	0xbd0e01f2	-0.034669824
44	0x3d2c0bb1	0.042003337
45	0xbd26075d	-0.040534366
46	0xbd90adab	-0.070643745
47	0x3d3d1038	0.046158046
48	0xbcf6a177	-0.03010629
49	0xbd3c8ca4	-0.046032563
50	0xbee1cae8	-0.44100118
51	0xbd8d23d1	-0.06891597
52	0xbe7a3526	-0.24434337
53	0xbe2e8f4a	-0.17046848
54	0xbc367215	-0.011135598
55	0x3d2646d7	0.040594902
56	0xbc2d05df	-0.010560482
57	0xbd446b9b	-0.047954183
58	0x3d3821a0	0.044953942
59	0xbbb68aee	-0.005570761
60	0xbd5d4bff	-0.054027554
61	0x3e18b3c6	0.14912328
62	0xbd6a4d1d	-0.057202447
63	0x3d8d2cc0	0.06893301
64	0xbdf79910	-0.12089741
65	0xbd7a3b20	-0.061091542
66	0x3d62beff	0.05535793
67	0xbd88e105	-0.06683544
68	0x3cf72fe3	0.030174201
69	0xbd44cb39	-0.04804537
70	0xbd940ba9	-0.072287865
71	0xbd881cab	-0.06646093
72	0xbd7d87e3	-0.06189717
73	0x3d1b71e9	0.03795043
74	0x3e2c1021	0.16803028
75	0xbc2f987f	-0.01071751
76	0x3cd1a1ec	0.025589906
77	0x3e4c3841	0.19943334
78	0xba56de00	-0.0008196533
79	0x3d7d71cb	0.0618761
80	0x3d63ff59	0.05566344
81	0xbd25e57b	-0.040502053
82	0x3e0d38e1	0.13791229
83	0xbd0b7bfd	-0.03405379
84	0xbd42390c	-0.047417685
85	0x3ce1e347	0.027574195
86	0xbce72794	-0.028217115
87	0xbd9e5e3e	-0.07732819
88	0xbd315722	-0.043295987
89	0x3b8e54bd	0.0043435977
90	0xba1b0c25	-0.00059145904
91	0xbdc183be	-0.09448956
92	0x3dbc495c	0.0919368
93	0xbcb27365	-0.02178354
94	0x3c3b319f	0.011425405
95	0x3c95dac3	0.01829279
96	0xbd545047	-0.05183437
97	0xbd9465ce	-0.0724598
98	0x3e11df61	0.14245369
99	0xbd608bd4	-0.05482085
100	0x3ddac585	0.10682205
101	0x3e86c189	0.2631953
102	0xbcb506ee	-0.02209803
103	0xbdb6e101	-0.08929635
104	0xbd76feb0	-0.060301483
105	0x3d11d768	0.035605818
106	0xbd956cff	-0.0729618
107	0x3e006896	0.12539896
108	0x3cd056ed	0.025432074
109	0xbdb0fab0	-0.08641565
110	0xbde8e622	-0.11372019
111	0x3e491d4b	0.1964008
112	0x3e437b61	0.19090034
113	0xbc5ecdbc	-0.013598856
114	0x3c264e90	0.010150567
115	0xbd79a78e	-0.06095081
116	0x3caba8aa	0.020954449
117	0xbd506256	-0.05087503
118	0xbda6c84b	-0.081436716
119	0xbcbf333d	-0.023339862
120	0xbdb6232d	-0.08893428
121	0x3d692860	0.05692327
122	0xbd99a47d	-0.07502077
123	0xbcd214af	-0.025644628
124	0x3dd8de87	0.10589319
125	0xbd4e1a6e	-0.050318174
126	0x3d78cf49	0.060744558
127	0xbd531e6b	-0.05154268
128	0xbdfbe4ad	-0.12299476
129	0xbd869fd0	-0.065734506
130	0x3c9f8847	0.019474162
131	0x3cf36070	0.02970907
132	0x3e61197e	0.21982381
133	0x3d1a4a11	0.03766829
134	0xbdeecf8f	-0.116606824
135	0xbba6949a	-0.0050836327
136	0xbdc98f56	-0.09841792
137	0xbd3c225f	-0.045931216
138	0xbd36ba35	-0.044611175
139	0xbbe25e2c	-0.006908199
140	0x3d9afc48	0.0756765
141	0x3c11ff3a	0.008910948
142	0x3a0260cd	0.0004973531
143	0x3e596759	0.2123083
144	0x390340ca	0.0001251727
145	0x3d1bcc53	0.038036656
146	0xbe7c4bbc	-0.24638265
147	0xbd253e1b	-0.04034243
148	0x3e0de6f3	0.13857631
149	0x3d54eea2	0.05198539
150	0x3d5d561b	0.054037195
151	0xbd0b7fff	-0.034057613
152	0xbce1282a	-0.027484972
153	0xbd07fabb	-0.0331981
154	0xbd9f2d2a	-0.07772286
155	0xbc879aa0	-0.016553223
156	0xba5b14aa	-0.0008357266
157	0xbceea4e4	-0.02913136
158	0x3ded788a	0.115952566
159	0xbd759412	-0.059955664
160	0x3c4ee1e4	0.012627099
161	0x3d084222	0.033266194
162	0xbb8bdc40	-0.004268199
163	0x3d841495	0.06449238
164	0x3c8289f4	0.015934922
165	0xbd7d5821	-0.061851624
166	0xbd953057	-0.07284611
167	0xbc2a6327	-0.010399616
168	0xbd9ca95b	-0.076494895
169	0x3e7094d9	0.23494281
170	0x3cac57d7	0.021037979
171	0xbd28b1bc	-0.041185126
172	0xbd5d10bf	-0.05397105
173	0xbf278fbe	-0.6545371
174	0xbcaf44b7	-0.02139507
175	0xbdca01e4	-0.09863642
176	0xbd18b3be	-0.03728079
177	0x3dc68a53	0.09694352
178	0xbcd53911	-0.026028188
179	0x39ae2040	0.00033211894
180	0xbc73ee97	-0.014888427
181	0xbd9715e8	-0.07377225
182	0xbcdea1a7	-0.027176691
183	0xbd9e6451	-0.077339776
184	0x3dfc9697	0.1233341
185	0x3e0ccc60	0.13749838
186	0x3d0568fa	0.032570817
187	0xbcc5a2a7	-0.02412541
188	0x3c35af78	0.011089198
189	0xbd909019	-0.070587344
190	0xbd5c7147	-0.053818967
191	0xbd83c58f	-0.06434166
192	0x3e2c80a3	0.16845946
193	0x3e25466a	0.16140142
194	0xbb3b09dc	-0.0028539812
195	0x3cd7c2c3	0.026337987
196	0x3c62ae67	0.013835526
197	0xbc01999e	-0.00791016
198	0x3da4a49d	0.0803921
199	0xbd02e5f2	-0.031957574
200	0xbd1a9369	-0.037738238
201	0x3e3d0fff	0.18463133
202	0x3b6394fa	0.0034726248
203	0xbd20521d	-0.03914081
204	0x3e1926ae	0.14956161
205	0xbca1fe75	-0.019774655
206	0xbb3b75b3	-0.002860409
207	0xbccdae3d	-0.025107497
208	0x3d19776b	0.0374674
209	0xbc0cba77	-0.008589379
210	0xbd49f101	-0.049302105
211	0xbbc357fd	-0.0059614168
212	0x3b938777	0.0045022327
213	0xbcf15598	-0.02945976
214	0xbce6a947	-0.02815689
215	0xbe944d26	-0.2896511
216	0x3b3add1a	0.0028513134
217	0xbd905877	-0.07048123
218	0x3dd7eb68	0.10542947
219	0xbc06aa79	-0.008219355
220	0xbd62ff48	-0.055419236
221	0xbd7e155b	-0.062032085
222	0xbe034e99	-0.12822951
223	0xbd3f4a11	-0.046701495
224	0xbd2eb78f	-0.042655524
225	0x3c06e134	0.008232404
226	0xbdc92ce7	-0.098230176
227	0xbc9a4384	-0.018831022
228	0xbd3c1f0e	-0.045928054
229	0xbd5fcf3c	-0.054640993
230	0xbd4af31a	-0.049548246
231	0xba4c5216	-0.0007794214
232	0xbd444e7a	-0.047926404
233	0x3d39a7fa	0.04532621
234	0xbe0082b3	-0.12549858
235	0x3d9bcb82	0.076071754
236	0x3c97bca4	0.018522568
237	0x3e739aac	0.23789471
238	0x3b989215	0.004656086
239	0xbce79ded	-0.028273547
240	0x3c7ffafe	0.015623806
241	0x3b974cec	0.004617324
242	0xbd6bbfa0	-0.057555795
243	0x3c5db0a3	0.013530883
244	0xbd63abb9	-0.05558369
245	0xbbf1d1e7	-0.0073797586
246	0x3d1665d9	0.036718223
247	0xbdfc069c	-0.12305948
248	0x3de9f686	0.11423974
249	0xbdec2eed	-0.11532388
250	0x3e325104	0.17413718
251	0xbbbccc9e	-0.005761697
252	0x3b591f25	0.0033130136
253	0xbd5117e8	-0.05104819
254	0x3d569393	0.05238683
255	0x3cbfdd1a	0.02342086

layers.3.bias f4 [300]
0	0xbd85e23e	-0.06537293
1	0xbd8743be	-0.06604718
2	0xbd9bfa33	-0.07616081
3	0xbd593688	-0.05303052
4	0xbdbcff2b	-0.09228357
5	0xbc9263c2	-0.017869834
6	0x3bc0cd81	0.005883873
7	0xbcbf9e81	-0.02339101
8	0xbc9dd8f5	-0.019268492
9	0xbd05483a	-0.032539584
10	0xbd1509d7	-0.036386337
11	0xbda018d5	-0.07817236
12	0xbc3569ca	-0.011072585
13	0xbcc9956f	-0.024607388
14	0xbc99f5e5	-0.01879401
15	0xbdad5869	-0.084641285
16	0xbd8af44f	-0.067848794
17	0x3c94a95a	0.01814716
18	0x3c686217	0.014183543
19	0xbd9fec82	-0.07808782
20	0xbd8619f4	-0.06547919
21	0xbd50550b	-0.050862353
22	0xbd996136	-0.07489245
23	0xbc4849d7	-0.012224636
24	0xbcf55262	-0.02994651
25	0xbc75296f	-0.014963492
26	0xbdbf3662	-0.093365446
27	0xbda4e6ca	-0.08051832
28	0xbccd1023	-0.025032109
29	0xbdd4a8c4	-0.10383752
30	0xbd88074d	-0.066420175
31	0xbd9c25d3	-0.07624402
32	0xbdcd3732	-0.10020293
33	0xbd39e1d4	-0.045381382
34	0x3d44d5c8	0.04805544
35	0xbd838510	-0.06421864
36	0xbd67f9a5	-0.056634564
37	0xbd9c85fb	-0.07642742
38	0xbda6c359	-0.08142728
39	0xbd70ff42	-0.058837183
40	0xbc9dd808	-0.01926805
41	0xbd09d8be	-0.033653967
42	0xbd057c0b	-0.032589
43	0xbca5c5ff	-0.020236013
44	0x3d305ff3	0.043060254
45	0xbd28df87	-0.041228797
46	0xbd9b0348	-0.07568985
47	0xbd7653df	-0.06013858
48	0xbcd2db4a	-0.02573933
49	0xbd8669b6	-0.065631315
50	0xbd14410e	-0.036194853
51	0x3b7b2831	0.0038323516
52	0xbd6d9633	-0.05800457
53	0xbd8ec867	-0.069718175
54	0x3d28ba41	0.04119325
55	0xbd72a06e	-0.05923503
56	0xbdc3e83b	-0.09565779
57	0x3ccaaa6e	0.02473947
58	0xbdc783d9	-0.09741945
59	0xbd866caa	-0.06563695
60	0xbcbccc36	-0.023046594
61	0xbd7137c1	-0.05889106
62	0xbdb3c572	-0.08777894
63	0xbd1a43b4	-0.037662223
64	0x3d15c7c5	0.03656747
65	0xbd3e194f	-0.046410855
66	0x3d727ac9	0.05919913
67	0xbd277450	-0.04088241
68	0xbd5bab39	-0.053630088
69	0xbd986efc	-0.074430436
70	0xbd228640	-0.039678812
71	0x3d854fb7	0.06509345
72	0xbd4a9360	-0.049456954
73	0xbdd04e70	-0.10171211
74	0xbd840ae3	-0.06447389
75	0xbd3c332b	-0.045947235
76	0xbd2d4d0f	-0.042309817
77	0xbce131ff	-0.02748966
78	0xbd07d128	-0.03315845
79	0xbd57d64e	-0.05269461
80	0xbdc874fd	-0.09787939
81	0xbc2ceeed	-0.010555011
82	0xbd3cb3ef	-0.046070036
83	0xbdd7fbd7	-0.105460815
84	0xbc80a4c9	-0.015703576
85	0xbd994e8a	-0.07485683
86	0xbd9da097	-0.07696646
87	0xbd910201	-0.0708046
88	0xbdcc53fe	-0.09976958
89	0xbd7a7095	-0.061142523
90	0xbdbebb31	-0.09313048
91	0xbc74695d	-0.014917699
92	0xbd94dfe8	-0.07269269
93	0xbd8078a5	-0.06273011
94	0xbc8f3246	-0.017480027
95	0xbd9cecc8	-0.0766235
96	0xbd9b22eb	-0.075750194
97	0xbd1912ed	-0.037371565
98	0xbde08f75	-0.10964862
99	0xbda6beec	-0.08141884
100	0xbd442874	-0.04789014
101	0xbdb6b875	-0.08921901
102	0x3c91b90a	0.017788429
103	0xbda134a0	-0.078713655
104	0xbd83fdef	-0.06444918
105	0xbdd5c46f	-0.10437857
106	0x3d41cbf8	0.04731366
107	0xbd8890bc	-0.06668231
108	0x3d3582a4	0.04431404
109	0xbd235768	-0.03987828
110	0x3c684948	0.014177628
111	0xbd96ee85	-0.07369713
112	0xbda56e63	-0.08077695
113	0xbaf39d06	-0.0018586225
114	0xbddd8e52	-0.10818161
115	0x3ab2a3eb	0.0013629174
116	0xbdbf3a12	-0.09337248
117	0x3d422bc1	0.04740501
118	0xbd2ffd73	-0.042966317
119	0xbd22c555	-0.03973897
120	0xbdac2a93	-0.08406558
121	0xbd8d248a	-0.06891735
122	0xbd28681b	-0.041114908
123	0xbd69f27a	-0.05711601
124	0xbd1651dc	-0.03669916
125	0xbdac1385	-0.084021606
126	0xbd70d4d7	-0.05879673
127	0xbd93435b	-0.071905814
128	0xbd1a9af8	-0.037745446
129	0xbd49228c	-0.049105212
130	0xbb744a85	-0.0037275862
131	0xbcb6940e	-0.022287395
132	0xbddb1234	-0.10696831
133	0xbdade0bc	-0.0849013
134	0x3dd58084	0.10424903
135	0xbd6a00e6	-0.057129763
136	0x3ac7e97f	0.0015252082
137	0xbc9e3344	-0.019311555
138	0xbdc59c62	-0.09648968
139	0xbd63d097	-0.05561885
140	0xbd271bfb	-0.04079817
141	0xbcdd0c05	-0.02698327
142	0xbba47650	-0.0050189868
143	0xbd39fb10	-0.045405447
144	0xbc8bb81d	-0.017055565
145	0xbdcfc6fc	-0.10145375
146	0xbdad1318	-0.084509075
147	0x3c8c1058	0.017097637
148	0xbc2cd448	-0.010548659
149	0xbd386821	-0.04502118
150	0xbbaf7893	-0.0053549497
151	0xbd802be0	-0.062583685
152	0xbd9bf8b5	-0.076157965
153	0xbd80cc94	-0.0628902
154	0xbdcad6d3	-0.09904256
155	0xbd38e47c	-0.045139775
156	0xbd5a592f	-0.05330771
157	0xbd97c2bd	-0.0741019
158	0xbcfbef5d	-0.030753786
159	0xbd884743	-0.06654217
160	0xbc7e1e17	-0.015510104
161	0xbcbb946f	-0.022897927
162	0xbd2e073d	-0.04248737
163	0xbd522580	-0.051305294
164	0xbbf564e2	-0.007488833
165	0xbd345b40	-0.044032335
166	0x3c93b7dd	0.018032009
167	0xbd8048fb	-0.0626392
168	0xbbcfce9a	-0.0063417675
169	0xbd08cf27	-0.03340068
170	0xbd9937b7	-0.0748133
171	0xbd111039	-0.03541586
172	0xbd9780fc	-0.07397649
173	0xbcd3b9f1	-0.0258455
174	0x3d8bcfd8	0.068267524
175	0xbdc5da59	-0.09660787
176	0xbd8514c5	-0.06498102
177	0xbd6111a1	-0.054948453
178	0xbcd60291	-0.02612427
179	0xbd50b009	-0.05094913
180	0xbd1ad456	-0.037800156
181	0xbd020224	-0.031740323
182	0x3c078dc0	0.008273542
183	0xbce390c0	-0.027778983
184	0xbd687993	-0.056756567
185	0x3c0ebf84	0.008712653
186	0xbdb97bdd	-0.09056828
187	0xbcf71f8b	-0.030166408
188	0xbddd0b9d	-0.10793231
189	0xbd3870ba	-0.04502938
190	0xbd58fc7e	-0.05297517
191	0xbd7d38e2	-0.061821826
192	0xbc64695d	-0.013941136
193	0xbe01bb4f	-0.12669109
194	0xbcd309ff	-0.025761602
195	0xbdb0ee53	-0.08639207
196	0x3bb6caf8	0.005578395
197	0xbc258d85	-0.010104542
198	0xbd808265	-0.06274871
199	0xbda0b8e2	-0.078477636
200	0xbdbecbdb	-0.09316226
201	0xbd71d93b	-0.059045058
202	0xbc8b5919	-0.017010259
203	0xbdd65457	-0.10465305
204	0xbd6fb579	-0.058522675
205	0xbcd6cec5	-0.026221642
206	0x3cfa7b88	0.030576482
207	0xbc963fe6	-0.018341016
208	0xbb904fd6	-0.0044040484
209	0xbd81dd34	-0.06341019
210	0xbcfe1732	-0.03101692
211	0xbd20d8f7	-0.039269414
212	0xbc15d33e	-0.009144602
213	0xbdafa5e2	-0.085765615
214	0xbd7eb169	-0.06218091
215	0xbd219c58	-0.03945574
216	0xbd424f36	-0.047438823
217	0xbdb1e9ee	-0.08687197
218	0xbdc99e62	-0.09844662
219	0x3cf03f94	0.029327191
220	0x3c02fd40	0.00799495
221	0xbdc38482	-0.09546758
222	0xbd335ced	-0.043789793
223	0xbca2a3ed	-0.019853557
224	0x3c39b121	0.011333735
225	0x3c117db8	0.008880071
226	0xbd1c1e43	-0.038114797
227	0xbdb4c02c	-0.088257164
228	0x3d1b236d	0.03787558
229	0x3d0cb7b7	0.03435489
230	0xbc7a69a4	-0.015283976
231	0xbd8cd5f7	-0.06876748
232	0xbd7a92b2	-0.061175056
233	0xbcc9107a	-0.02454399
234	0xbcf65df0	-0.03007409
235	0xbc3e2a25	-0.011606728
236	0xbd8092e8	-0.0627802
237	0x3d523ecc	0.05132942
238	0xbd2c7ccd	-0.042111207
239	0x3a660c84	0.00087756687
240	0xbc951174	-0.018196799
241	0xbcfe11aa	-0.031014282
242	0xbd522127	-0.051301148
243	0xbd3b88f9	-0.045784924
244	0xbd028190	-0.03186184
245	0xbd78f168	-0.060777098
246	0xbc74a4d8	-0.01493188
247	0x3bbf908c	0.0058460888
248	0xbcfed6cb	-0.03110828
249	0xbdc43b7c	-0.09581658
250	0xbd72e717	-0.059302416
251	0xbcaa6bfa	-0.02080344
252	0xbcbbcee3	-0.0229258
253	0xbdab5c33	-0.08367195
254	0xbc8f8090	-0.017517358
255	0x3cd66d5a	0.02617519

layers.6.weight f4 [200, 300]
0	0xbdb63109	-0.088960715
1	0x3d7cdcb8	0.06173393
2	0x3cbe6309	0.023240583
3	0xbd80e1dd	-0.0629308
4	0x3c14940f	0.009068503
5	0xbce38976	-0.027775507
6	0x3c311e75	0.010810484
7	0x3cab2aac	0.020894371
8	0xbe17033a	-0.14747325
9	0xbdc3ba33	-0.09556999
10	0xba73684a	-0.00092852546
11	0xbd128681	-0.035772804
12	0x3debf837	0.115219526
13	0xbd54cce7	-0.051953223
14	0xbd777cf9	-0.060421918
15	0xbd41b918	-0.04729566
16	0xbdbec342	-0.09314586
17	0xbd611d5b	-0.054959636
18	0x3c15afa7	0.009136117
19	0xbdbfc1bf	-0.09363126
20	0x3d374db8	0.044751853
21	0x3c53ed3c	0.012934979
22	0xbd8751d8	-0.06607407
23	0xbdad8cf3	-0.084741496
24	0xbcc37453	-0.023859179
25	0xbd289095	-0.04115351
26	0xbc576dc9	-0.013148733
27	0x3d31c415	0.04339989
28	0x3d688a7e	0.0567727
29	0xbd28e00c	-0.041229293
30	0x3da1a3b5	0.07892553
31	0xbd8a3669	-0.06748659
32	0xbb65fb4b	-0.003509241
33	0xbda4af70	-0.080412745
34	0x3b978233	0.0046236753
35	0xbd38cf00	-0.045119286
36	0xbd9d36ef	-0.076764934
37	0xbd2ac992	-0.04169614
38	0x3d3121b8	0.043245047
39	0x3baf1cce	0.00534401
40	0xbdaa8639	-0.08326382
41	0x3d006222	0.031343587
42	0xbd923a4b	-0.07140025
43	0x3c234727	0.0099656945
44	0x3d98793a	0.07444997
45	0xbd0dd3a9	-0.034625683
46	0xbd0b78ba	-0.03405068
47	0xba93f311	-0.0011287649
48	0x3dcac39f	0.09900593
49	0xbdcdd3ab	-0.10050138
50	0xbc6cece3	-0.014460775
51	0xbb45b8b6	-0.003016991
52	0x3c7e1b0a	0.015509376
53	0x3c835399	0.016031073
54	0xbe42a27f	-0.190073
55	0x3cb4fd20	0.022093356
56	0x3c9c2cdf	0.019064365
57	0xbd0066c9	-0.031348024
58	0x3dcdda6f	0.100514285
59	0xbd41b54d	-0.047292043
60	0xbd7c9846	-0.061668657
61	0xbd82a67e	-0.06379412
62	0xbd811fff	-0.06304931
63	0xbd2f33fa	-0.042774178
64	0xbd8a7f6a	-0.067625836
65	0x3c27a61f	0.010232477
66	0xbdac9297	-0.08426397
67	0x3b856ef2	0.0040720636
68	0xbbacd952	-0.00527493
69	0xbd324ae1	-0.04352844
70	0x3c6a3f73	0.014297354
71	0x3d7a0a83	0.06104518
72	0xbc9593e9	-0.018259006
73	0x3db8a3ae	0.090155944
74	0x3d17bf3f	0.03704762
75	0x3c1fd783	0.009755972
76	0xbbcf68fa	-0.006329653
77	0xbdc4d5c6	-0.096110865
78	0x3cbb6d82	0.022879366
79	0x3da39275	0.07986919
80	0xbde91ecf	-0.113828294
81	0xbcb66f3f	-0.022269843
82	0xbc76ed63	-0.015071246
83	0xbc1c8381	-0.009552837
84	0xbd3c0202	-0.045900352
85	0x3decd1f8	0.11563486
86	0xbdc0f367	-0.09421425
87	0xbc9ebd15	-0.01937727
88	0xbde289ab	-0.11061414
89	0x3da5a462	0.08087994
90	0x3da622f2	0.08112134
91	0xbcdb7eab	-0.026793798
92	0x3da23fc0	0.079223156
93	0x3dc93816	0.09825151
94	0xbbc666e6	-0.006054747
95	0xbd18f4b2	-0.037342735
96	0xbcd8fbcd	-0.026487255
97	0xbd0a8300	-0.033816338
98	0x3b8cdc27	0.004298705
99	0xbcb9bab7	-0.02267204
100	0x3d7a40db	0.061097007
101	0x3dd85a92	0.1056415
102	0xba338661	-0.0006848332
103	0x3d935459	0.071938224
104	0xbcaffa10	-0.021481544
105	0x3d0f191d	0.03493606
106	0xbc5e7f84	-0.013580207
107	0xbc5e2c61	-0.013560385
108	0xbd5fba92	-0.054621287
109	0x3dd565a9	0.10419781
110	0xbc2a558c	-0.0103963725
111	0xbc47b7ac	-0.012189787
112	0xbd50b04b	-0.050949376
113	0x3d879650	0.06620467
114	0x3dd20f1f	0.1025679
115	0xbdc6f9a4	-0.09715584
116	0x3d17f7f2	0.037101693
117	0xbd7fb7b6	-0.06243106
118	0xbc1774fb	-0.009244199
119	0xbb926123	-0.004467146
120	0x3cb8293a	0.022480596
121	0x3b5e3556	0.0033906302
122	0x3dacebe7	0.08443432
123	0xbb111f2f	-0.002214383
124	0x3db668c4	0.08906701
125	0xbc8a848e	-0.01690891
126	0xbd8b0dc0	-0.06789732
127	0x3cc78d83	0.02435947
128	0xbc122f23	-0.008922371
129	0xbda09ce5	-0.07842425
130	0x3c5e7dac	0.013579767
131	0xbce6cc52	-0.0281736
132	0x3d539b5f	0.051661845
133	0x3de99570	0.11405456
134	0xbd0c6ba1	-0.03428233
135	0x3bacfb32	0.0052789683
136	0xbd85f7e2	-0.065414205
137	0xbd727a1e	-0.05919849
138	0xbcaa82e9	-0.020814376
139	0xbce0773c	-0.027400605
140	0xbb1385d8	-0.0022510197
141	0xbc1e04db	-0.009644712
142	0x3c80d70a	0.015727539
143	0x3de0498e	0.109515294
144	0x3c8aab3e	0.016927358
145	0x3d39b851	0.045341793
146	0xbcfef971	-0.031124802
147	0xbd9ec862	-0.07753064
148	0xbb31a211	-0.0027104656
149	0x3ccfebf2	0.025381062
150	0xbc3c7c75	-0.011504282
151	0xbe0b1a71	-0.13584305
152	0x3dd23c0d	0.1026536
153	0xbd670b57	-0.0564073
154	0xbc853dc0	-0.016264796
155	0x3dc338ae	0.09532295
156	0x3b951197	0.004549216
157	0xbda3bc43	-0.079948924
158	0xbc9b478e	-0.018955018
159	0xbd87faff	-0.066396706
160	0xbc8f1aa4	-0.017468758
161	0x3d141848	0.03615597
162	0xbd609af1	-0.054835264
163	0x3b8f3616	0.004370461
164	0xbd3034e3	-0.043019187
165	0xbd0fead6	-0.035136066
166	0x3e396bac	0.1810748
167	0xbdbbddb4	-0.09173146
168	0xbc15730d	-0.0091216685
169	0xbd9692e4	-0.07352236
170	0xbd96bc15	-0.073600926
171	0x3c6ac9e9	0.014330366
172	0xbd07a4e5	-0.03311624
173	0x3de933cd	0.11386833
174	0xbe012bf0	-0.12614417
175	0x3c99db50	0.018781334
176	0xbd5d0700	-0.053961754
177	0x3dec8578	0.11548895
178	0xbd8cef65	-0.068815984
179	0x3caefca9	0.021360712
180	0x3cd04530	0.025423616
181	0xbd22daca	-0.039759435
182	0x3bffba73	0.007804209
183	0x3cec10c1	0.028816583
184	0xbd5bd975	-0.05367418
185	0x3b51a55f	0.0031989438
186	0x3d1abf79	0.03778026
187	0xb9eaf9b3	-0.00044817998
188	0xbcc9b7b4	-0.02462373
189	0x3ccaf873	0.024776673
190	0xbdb245cb	-0.08704718
191	0xbdd97388	-0.10617739
192	0xbd3aebcf	-0.04563504
193	0xbd4d257e	-0.050084583
194	0xbdc3cc7d	-0.095604874
195	0x3dd602d8	0.10449761
196	0x3cc72e44	0.024314053
197	0x3cf53402	0.029932026
198	0xbc9445ad	-0.01809963
199	0x3cd3dec4	0.025863059
200	0x3b807c9a	0.0039211037
201	0xbdb63e27	-0.08898573
202	0xbd9caca3	-0.07650115
203	0x3d833fa4	0.06408623
204	0x3d551a67	0.052027132
205	0xbcabd461	-0.020975294
206	0x3dbb5ea4	0.09148911
207	0x3ddb81ab	0.107180916
208	0xbd8b80dc	-0.06811687
209	0x3de740a1	0.11291624
210	0x3c5d44fa	0.013505215
211	0xbd74d735	-0.05977555
212	0xbdb0e47d	-0.08637331
213	0x3c4a5f0d	0.012351763
214	0x3db7248c	0.08942518
215	0xbd741ea9	-0.059599552
216	0x3d89a539	0.06720967
217	0x3d90fbd1	0.0707928
218	0x3d9f9342	0.07791759
219	0x3d02e89c	0.031960115
220	0x3c80d6c8	0.015727416
221	0xbd0170ac	-0.031601593
222	0xbc686a09	-0.014185437
223	0xbda05010	-0.07827771
224	0xbda1e9ad	-0.07905898
225	0xbd2af76b	-0.041739862
226	0x3c04055e	0.00805792
227	0x3d20cf5e	0.03926026
228	0xbcd9d678	-0.026591524
229	0xbd527ec0	-0.05139041
230	0x3d09e4e4	0.033665553
231	0xbd44652b	-0.047948044
232	0xbd33836b	-0.0438265
233	0xbdcc554c	-0.099772066
234	0x3d45c37b	0.048282128
235	0xbd9299ac	-0.07158217
236	0xbd8406be	-0.064465985
237	0xbc206555	-0.009789784
238	0x3d944c03	0.072410606
239	0xbc93ac7d	-0.018026585
240	0x3e5d5725	0.21615274
241	0x3d57040f	0.052494105
242	0xbd7d6411	-0.06186301
243	0xbc452c44	-0.0120344795
244	0x3daddff8	0.08489984
245	0xbcb2c24b	-0.021821162
246	0x3b63aad8	0.0034739282
247	0xbbdc0041	-0.0067138975
248	0x3c91881c	0.017765097
249	0xbd584a67	-0.05280533
250	0xbd1086fc	-0.03528498
251	0xbd9ae5c2	-0.07563354
252	0xbbf13ad1	-0.007361748
253	0x3c8e0a7d	0.017338986
254	0x39a9aef3	0.0003236454
255	0xbdf41a12	-0.11919035

layers.6.bias f4 [200]
0	0x3d42138d	0.047381926
1	0xbdbe4694	-0.092908055
2	0xbdb0dc5d	-0.08635781
3	0x3baac61f	0.005211606
4	0xbe12d972	-0.14340761
5	0x3cc4ccef	0.024023501
6	0x3df47502	0.1193638
7	0xbc1574d0	-0.009122089
8	0xbca6c644	-0.020358212
9	0xbda17556	-0.07883708
10	0xbd4f4116	-0.05059918
11	0x3ca81895	0.020519534
12	0xbb4229eb	-0.0029627036
13	0xbd919764	-0.071089536
14	0x3d4ef6d1	0.05052835
15	0x3e1eb17c	0.15497392
16	0x3cff21b5	0.031144002
17	0x3d67948e	0.056538157
18	0xbd9a71a4	-0.075412065
19	0xbc20f3a1	-0.009823711
20	0x3ddc0822	0.10743739
21	0xbd294c2f	-0.04133242
22	0xbd504c14	-0.050853804
23	0xbdbdd56a	-0.09269221
24	0xbd938de6	-0.07204799
25	0xbdeac348	-0.11463028
26	0x3de07b30	0.10960996
27	0xbd317baf	-0.043330844
28	0x3da0a628	0.07844192
29	0xbdaa8676	-0.08326428
30	0x3da2324a	0.07919748
31	0xbdf12f02	-0.11776544
32	0xbd34a650	-0.04410392
33	0xbd4894a5	-0.048969883
34	0x3d9242f9	0.0714168
35	0xbc882fb7	-0.016624315
36	0x3db7d7b4	0.08976689
37	0x3b9f16d3	0.004855016
38	0xbb2c02fb	-0.0026246894
39	0x3e018f58	0.12652338
40	0xbcfaee11	-0.030631097
41	0x3d8a74eb	0.067605816
42	0xbcfb40b1	-0.030670496
43	0x3cb9bb9a	0.022672463
44	0x3d50bee3	0.050963294
45	0xbdc5cc83	-0.09658148
46	0xbde12d4a	-0.10994966
47	0xbe2584d9	-0.16163959
48	0x3d4ee209	0.050508533
49	0xbdcfb3f8	-0.10141748
50	0xbd848b90	-0.06471932
51	0xbd517bc4	-0.051143423
52	0xbcd37856	-0.025814217
53	0x3ce74bc3	0.028234368
54	0x3d276403	0.040866863
55	0xbba43840	-0.0050115883
56	0x3cfecda4	0.031103916
57	0xbc9e44b4	-0.01931987
58	0x3c34ac1c	0.011027362
59	0x3bd369b0	0.006451808
60	0x3ca7c2db	0.020478657
61	0xbd7f8d1b	-0.062390428
62	0x3d525360	0.051349044
63	0xbcb8a21d	-0.02253824
64	0x3dd98769	0.106215306
65	0x3c05477e	0.008134721
66	0xbe1a5b5d	-0.15073915
67	0x3dceb4f1	0.100931056
68	0x3c6f5827	0.0146084195
69	0x3d47546d	0.0486645
70	0x3d957c75	0.07299129
71	0x3cafceff	0.021461008
72	0xbd6806d4	-0.056647137
73	0x3c48bd93	0.012252229
74	0xbd931d60	-0.07183337
75	0xbe0a78b8	-0.13522613
76	0xbddaeb23	-0.1068938
77	0x3d53b582	0.05168677
78	0x3c0dd2f4	0.008656252
79	0xbaf19bfa	-0.0018433325
80	0xbdd90a20	-0.10597634
81	0x3d043c70	0.0322842
82	0x3dd27000	0.102752686
83	0xbd380e0b	-0.044935267
84	0x3de1a632	0.11018027
85	0xbdd3ad73	-0.10335817
86	0x3d140517	0.036137667
87	0xbd324848	-0.043525964
88	0xbd8a9963	-0.067675374
89	0x3d04d1f5	0.032426793
90	0xbda52648	-0.08063942
91	0x3ce5ab0d	0.028035665
92	0x3cfc7a87	0.030820144
93	0xbdcba204	-0.099430114
94	0xbcab628e	-0.020921018
95	0xbc624e3a	-0.013812596
96	0xbd8596c8	-0.065229
97	0x3e3679b9	0.17819871
98	0xbd501f1a	-0.05081091
99	0x3d60aa1b	0.054849725
100	0xbdd7afc5	-0.10531572
101	0xbdaa2459	-0.08307714
102	0x3ac8a7e2	0.0015308822
103	0x3db0da83	0.08635428
104	0x3dcefdef	0.10107028
105	0x3df14ce1	0.117822416
106	0xbcf38f5a	-0.029731441
107	0x3d7c3a09	0.061578784
108	0xbc665913	-0.014059323
109	0xbdaa1c29	-0.083061524
110	0xbd5851f6	-0.05281254
111	0xbd0ee7f2	-0.03488917
112	0x3d7ecd98	0.06220779
113	0xbe1e2bd2	-0.15446404
114	0x3e0390eb	0.1284825
115	0xbd3cab84	-0.046062008
116	0xbd863709	-0.06553466
117	0xbde8f438	-0.11374706
118	0xbdaffef2	-0.08593549
119	0xbc25f348	-0.010128804
120	0xbd11a978	-0.03556201
121	0x3d4b2388	0.049594432
122	0xbdd22595	-0.102610745
123	0x3ca49f72	0.02009556
124	0xbce1d16c	-0.02756568
125	0x3d8e85f5	0.06959144
126	0xbd83c155	-0.064333595
127	0x3c4ee421	0.012627632
128	0xbd557f10	-0.05212313
129	0xbdb2c38c	-0.08728704
130	0xbd390d43	-0.045178663
131	0x3d275a9f	0.040857907
132	0x3c835641	0.01603234
133	0xbdcce9fe	-0.10005568
134	0xbd05aa3f	-0.032633062
135	0xbd62904a	-0.055313386
136	0xbde27622	-0.11057688
137	0x3d0fa975	0.035073716
138	0xbd9e4650	-0.07728255
139	0xbc3a755b	-0.011380519
140	0xbc60f28e	-0.013729705
141	0x3d8f5457	0.069985084
142	0x3d770cd8	0.060314983
143	0xbcdddc79	-0.027082669
144	0xbde30d00	-0.11086464
145	0x3da2271b	0.07917615
146	0xbdab5354	-0.08365503
147	0xba211253	-0.0006144393
148	0x3d9612cb	0.07327803
149	0xbca0b5b9	-0.019617902
150	0xbcec8b20	-0.028874934
151	0x3c386897	0.011255405
152	0xbd1e1f02	-0.03860379
153	0x3dd66347	0.104681544
154	0xbcaaeebe	-0.020865794
155	0xbbbc1cdc	-0.005740745
156	0x3da1f7b4	0.07908574
157	0x3cb02143	0.021500235
158	0xbb9e0f18	-0.0048235767
159	0xbc04d26a	-0.008106807
160	0xbcf6ab12	-0.03011087
161	0x3d61b0db	0.055100303
162	0x3dd4855f	0.10377001
163	0xbcb7c44f	-0.022432474
164	0x3cd1a1ec	0.025589906
165	0x3db68c7e	0.089135155
166	0x3dfe4d8b	0.12417134
167	0x3dd78ae2	0.10524537
168	0xbe025db7	-0.12731062
169	0xbd6cc926	-0.057809018
170	0x3ba1f94c	0.0049430486
171	0x3cc4526d	0.023965085
172	0xbcdfb9a5	-0.027310202
173	0xbc7a9464	-0.015294168
174	0xbdea500f	-0.11441051
175	0xbd0145b8	-0.03156063
176	0x3d4089b2	0.047006316
177	0xbdba58eb	-0.09098991
178	0xbdb02b9e	-0.08602069
179	0x3da3afee	0.0799254
180	0x3d869ae3	0.06572511
181	0x3de2b75c	0.11070129
182	0x3c1c3936	0.0095351245
183	0x3b762503	0.0037558682
184	0xbda1a392	-0.07892527
185	0xb99c2829	-0.0002978456
186	0x3daa2406	0.08307652
187	0xbd08b3f1	-0.03337473
188	0xbd80274d	-0.06257496
189	0x3d36061e	0.044439428
190	0x3c8d5ff0	0.01725766
191	0x3da4d09e	0.08047603
192	0xbde10942	-0.10988094
193	0xbd2f662c	-0.042822048
194	0xbcb93b39	-0.022611247
195	0xbb8e1f1e	-0.0043372056
196	0xbda47ea7	-0.080319695
197	0xbcce311a	-0.025169898
198	0x3c4b0c8f	0.012393131
199	0xbde3e8a4	-0.11128357

layers.9.weight f4 [100, 200]
0	0x3e41b0ef	0.18915151
1	0xbd65a525	-0.056065697
2	0xbbbf8e80	-0.0058458447
3	0x3dbaf36a	0.09128459
4	0x3a42f2a2	0.0007436668
5	0x3dd46af2	0.10371961
6	0xbd20062e	-0.039068393
7	0x3bd6e00e	0.006557471
8	0x3daac02f	0.08337437
9	0xbdb5f281	-0.088841446
10	0x3e087dee	0.13329288
11	0xbd9ee1a9	-0.07757885
12	0x3d944f02	0.07241632
13	0x3d807365	0.0627201
14	0xbe422bfa	-0.18962088
15	0xbe095424	-0.13411003
16	0x3def2bb9	0.11678261
17	0xbe9967d2	-0.2996202
18	0xbd753973	-0.05986924
19	0xbe3e72e1	-0.1859851
20	0xbd76efa5	-0.060287137
21	0xbd239d3b	-0.03994487
22	0x3cb7122f	0.022347538
23	0x3c91508d	0.017738605
24	0xbbf18f64	-0.00737183
25	0xbbf11f61	-0.007358477
26	0x3c1a464a	0.009416172
27	0xbcc45617	-0.023966832
28	0xbd6e2a11	-0.058145586
29	0x3da6de39	0.08147854
30	0x3ced04ee	0.028933015
31	0xbc807260	-0.015679538
32	0x3cbfc91e	0.02341133
33	0x3d0ef33d	0.03489994
34	0xbe8ab3c5	-0.27090278
35	0xbd150204	-0.036378875
36	0x3d8fce4f	0.07021772
37	0x3d85fd4f	0.065424554
38	0x3d98815f	0.074465506
39	0xbd6433ec	-0.05571358
40	0x3b952eb2	0.0045526857
41	0x3d83dd99	0.06438751
42	0xbc2035f5	-0.009778489
43	0x3dbd8446	0.09253745
44	0x3d92dbc8	0.07170826
45	0xbc92fcc9	-0.017942803
46	0xbd8acbfc	-0.06777188
47	0x3d66e063	0.056366336
48	0x3e0b87ea	0.13626066
49	0x3d429d10	0.047513068
50	0x3e968cbe	0.29404253
51	0x3cad03f5	0.02112005
52	0xbd7f04b8	-0.06226036
53	0xbe79d372	-0.24397066
54	0xbccd4cf9	-0.025061117
55	0xbd89e63e	-0.06733368
56	0x3d0a8771	0.033820573
57	0x3d54fa55	0.051996548
58	0x3d94646b	0.07245716
59	0xbd54c766	-0.051947974
60	0x3d8535b6	0.06504385
61	0x3da998e7	0.08281117
62	0x3dea2c9b	0.11434289
63	0x3d7ac3c8	0.061221868
64	0x3dee5fa0	0.11639333
65	0x3ddc69a6	0.10762338
66	0xbce824c4	-0.028337844
67	0x3d74ea45	0.05979373
68	0x3cfc52a0	0.030801117
69	0x3de69458	0.11258763
70	0x3c64b0d1	0.013958172
71	0x3dc20ddd	0.094753005
72	0xbcef5d22	-0.029219214
73	0x3e0a0e2a	0.13481966
74	0xbde7335f	-0.11289095
75	0x3d354e76	0.04426428
76	0x3d02c4be	0.03192591
77	0x3d92c17f	0.07165813
78	0x3d360add	0.044443954
79	0x3dbff051	0.093720086
80	0xbc910158	-0.017700836
81	0x3e284e38	0.16436088
82	0xbc4a8aaf	-0.012362166
83	0x3d8b4d93	0.068019055
84	0xbe15ccd2	-0.14628914
85	0x3cb1c4e0	0.021700323
86	0x3df16d4f	0.11788427
87	0xbd9b8641	-0.07593966
88	0xbcb22ef2	-0.0217509
89	0x3d0f8647	0.035040166
90	0xbce7c94f	-0.028294234
91	0xbd6f62e0	-0.058443904
92	0xbd82a291	-0.06378663
93	0xbdc0cb76	-0.09413807
94	0xbe2a6981	-0.16641809
95	0x3caf494b	0.021397253
96	0xbd6d2491	-0.0578962
97	0xbe1d5350	-0.15363812
98	0xbd028717	-0.031867113
99	0x3d80b242	0.06284
100	0xbdb3d3f3	-0.087806605
101	0x3d184151	0.037171666
102	0xbd7c162e	-0.06154459
103	0xbe8ffbc6	-0.28121775
104	0x3e063a48	0.1310817
105	0xbce7dc31	-0.028303238
106	0xbcbf7947	-0.02337326
107	0x3dc41472	0.09574212
108	0x3bbcfbdb	0.005767328
109	0x3c51b502	0.012799503
110	0xbef46991	-0.4773679
111	0x3e15977a	0.14608565
112	0xbdc14b35	-0.09438173
113	0xbd5e8a5e	-0.054331176
114	0x3dd8ba42	0.10582401
115	0xbd22575e	-0.0396341
116	0x3d7d67c9	0.061866555
117	0x3b9b5fae	0.0047416305
118	0xbd0d7c15	-0.034542162
119	0xbdddeb5f	-0.10835909
120	0xbdc5b8d9	-0.096543975
121	0xbe09d5bd	-0.13460441
122	0x3d840fad	0.064483024
123	0x3e1e23bd	0.1544332
124	0xbd113c5d	-0.035457958
125	0xbd9f7d69	-0.07787592
126	0xbd6a6f80	-0.05723524
127	0xbd86abf9	-0.0657577
128	0xbd77a97c	-0.060464367
129	0x3c540842	0.012941422
130	0x3e0db168	0.13837206
131	0x3db9aec2	0.090665355
132	0xbf451ded	-0.7699879
133	0xbdfb51ec	-0.12271485
134	0xbdc07667	-0.093975835
135	0x3d07395e	0.033013694
136	0xbdbffded	-0.093746044
137	0x3c3a2985	0.011362438
138	0x3d16b6f4	0.03679557
139	0x3e448d8c	0.19194621
140	0xbe8d2f4b	-0.27575144
141	0xbe86520a	-0.26234466
142	0xbd5104ed	-0.05103009
143	0xbd4a4043	-0.04937769
144	0xbaf1f869	-0.0018460873
145	0x3e3b9c2d	0.18321295
146	0xbdfc21e5	-0.12311152
147	0xbd2c178f	-0.042014655
148	0x3c0ea26e	0.008705718
149	0x3e3a062b	0.18166415
150	0xbcf1ad02	-0.029501442
151	0x3d7ae02d	0.061248947
152	0xbbc70ac4	-0.0060742814
153	0x3b2b7065	0.0026159522
154	0x3b361b6d	0.0027787343
155	0x3ce83a14	0.028348006
156	0xbca09f3b	-0.019607177
157	0x3cb7d22c	0.022439085
158	0xbe1d48d3	-0.15359811
159	0xbd8ca0a1	-0.06866575
160	0x3b982ed5	0.0046442547
161	0x3cf17bec	0.029478036
162	0xbd6cd63d	-0.0578215
163	0xbde18b40	-0.11012888
164	0x3c7cf5c8	0.015439458
165	0xbdcd1851	-0.100144036
166	0xbe391933	-0.18076019
167	0xbb88daa4	-0.0041764546
168	0xbd4b4ab7	-0.0496318
169	0x3db21a72	0.0869645
170	0x3e864737	0.26226208
171	0x3d40c3df	0.047061797
172	0x3d294ec7	0.041334894
173	0xbd59f6c8	-0.053213865
174	0x3ccff3c6	0.025384795
175	0xbd06611d	-0.03280746
176	0xbcddb1b8	-0.027062282
177	0x3a2d6778	0.00066148443
178	0xbe3d8d4a	-0.18510929
179	0xbda93146	-0.08261351
180	0xbb29782c	-0.0025858982
181	0xbbd3b1af	-0.0064603905
182	0x3e223520	0.15840578
183	0x3d3f1573	0.046651315
184	0xbc298c74	-0.010348428
185	0x3cbdcb0f	0.023168115
186	0xbe4e3cd8	-0.20140398
187	0xbcbdfa71	-0.023190709
188	0xbde47c80	-0.11156559
189	0xbd26a21b	-0.04068194
190	0x3e08f911	0.13376261
191	0x3d7f7b34	0.062373355
192	0xbd2cd7ad	-0.042197872
193	0x3c9fb874	0.019497134
194	0xb808cd0e	-3.26159e-05
195	0x3d9df79b	0.077132426
196	0x3e22746a	0.15864721
197	0x3dd5235f	0.10407137
198	0xbed8cc3c	-0.42343318
199	0x3dbab3c6	0.0911632
200	0xbdc9a1d1	-0.09845317
201	0x3dd4244d	0.10358486
202	0xbc4ed319	-0.012623572
203	0x3e6ecf1c	0.23321193
204	0x3e40b4d3	0.18818979
205	0xbd57cedc	-0.05268751
206	0x3c887364	0.016656585
207	0x3e4490fd	0.19195934
208	0xbc5da54b	-0.013528178
209	0x3e830706	0.25591296
210	0x3dde0b5a	0.10842009
211	0xbd9d210a	-0.07672317
212	0xbbfdfe7e	-0.007751285
213	0xbc1673c8	-0.009182878
214	0xbc012844	-0.007883135
215	0x3d993407	0.074806266
216	0xb9476ecc	-0.00019019394
217	0x3e97dc1b	0.29660115
218	0x3d2c6424	0.04208769
219	0x3d6c83cd	0.057742883
220	0x3d471a52	0.048609085
221	0x3df063d9	0.117377944
222	0xbe3ff926	-0.18747386
223	0xbd07eb43	-0.033183347
224	0xbc47ee2c	-0.012202781
225	0xbb161cde	-0.002290539
226	0xbd2f9887	-0.04287007
227	0x3df045b3	0.11732044
228	0xbdaa8379	-0.08325858
229	0x3dc7859b	0.0974228
230	0xbd9548dd	-0.07289288
231	0x3c8790dd	0.016548568
232	0x3dad3700	0.08457756
233	0xbdd2301c	-0.102630824
234	0x3e43fe94	0.19140083
235	0xbcad71b0	-0.021172374
236	0x3d5398e0	0.051659465
237	0xbc1a39e7	-0.009413219
238	0xbdb1af0f	-0.08675968
239	0x3c73396f	0.014845236
240	0x3e356169	0.1771294
241	0x3e4abe67	0.19799195
242	0x3db2bdd1	0.08727611
243	0xbd914022	-0.070923105
244	0x3d861747	0.065474086
245	0xbc1b9403	-0.009495738
246	0xbd096dc3	-0.033551943
247	0x3d4077dc	0.046989307
248	0x3c63c027	0.013900793
249	0xbddc6763	-0.10761907
250	0x3d3a821d	0.045534242
251	0x3dccec8d	0.10006056
252	0xbd12b84f	-0.0358203
253	0x3dfa5d03	0.12224772
254	0x3da1faad	0.07909141
255	0x3d3520e1	0.04422081

layers.9.bias f4 [100]
0	0x3e75094b	0.23929326
1	0xbd8f3bf4	-0.06993857
2	0xbdc27eca	-0.09496839
3	0xbdbc0f11	-0.09182561
4	0x3eb2fc23	0.3495799
5	0x3d8c2e57	0.06844776
6	0xbda49c71	-0.08037651
7	0xbd9b172b	-0.07572778
8	0x3e109f1c	0.14123195
9	0xbdec68ce	-0.115434274
10	0x3d5c29b8	0.053750724
11	0x3e2dbd6c	0.1696679
12	0xbd3420c0	-0.043976545
13	0x3cd720fb	0.026260844
14	0x3e1f84d2	0.1557801
15	0xba927dd6	-0.0011176418
16	0xbdc13329	-0.09433586
17	0xbdd89575	-0.10575382
18	0xbe0934b9	-0.13399018
19	0xbd5dbb08	-0.054133445
20	0x3e60f3f8	0.21968067
21	0xbce8b384	-0.028405912
22	0x3c1fc00b	0.009750376
23	0xbdb6652f	-0.08906018
24	0x3db5872e	0.08863674
25	0x3d1b9cd3	0.037991356
26	0x3d88d08b	0.066804014
27	0xbdb6c7a7	-0.089247994
28	0xbd8046c9	-0.06263501
29	0x3c886079	0.016647564
30	0x3e5c78e9	0.21530499
31	0xbd81ee6f	-0.06344306
32	0xbd07291c	-0.03299819
33	0x3dd54025	0.10412625
34	0xbde50002	-0.11181642
35	0x3dcb1298	0.09915656
36	0x3e5db28b	0.2165014
37	0xbe1bd648	-0.1521846
38	0xbe25433b	-0.16138928
39	0x3e99775f	0.29973885
40	0x3d635a91	0.055506293
41	0xbe26c1d8	-0.16284883
42	0xbd0fcecc	-0.035109326
43	0x3d5734aa	0.05254046
44	0x3ddd2d76	0.107996866
45	0x3def93d2	0.11698116
46	0xbd1c75f9	-0.038198445
47	0xbdd015f0	-0.10160434
48	0x3d1c89c5	0.038217325
49	0x3daa25ba	0.08307977
50	0xbd9795f5	-0.07401649
51	0x3e266ae6	0.16251716
52	0x3e143c34	0.1447609
53	0xbe0b21b4	-0.13587075
54	0xbe54a2de	-0.20765254
55	0xbde0ddc4	-0.109797984
56	0xbc779bf9	-0.01511287
57	0xbce964a7	-0.028490378
58	0x3dc88047	0.09790092
59	0xbdf5b48f	-0.119973294
60	0x3e0492ff	0.129467
61	0xbde61322	-0.11234118
62	0xbe171895	-0.14755471
63	0x3d222480	0.03958559
64	0xbdf33579	-0.118754335
65	0x3e2135e7	0.15743218
66	0x3e07bb09	0.13254942
67	0x3e95b30d	0.29238167
68	0x3e8c6bb0	0.2742591
69	0x3cff21ea	0.031144101
70	0xbd38016c	-0.04492323
71	0x3e134fb7	0.14385878
72	0x3e53d958	0.20688379
73	0x3d498b34	0.04920502
74	0xba012894	-0.0004927006
75	0x3dfbb0dc	0.122895926
76	0xbd56ab2a	-0.05240933
77	0xbdc8387e	-0.097764
78	0xbe02c0fc	-0.1276893
79	0x3dee3139	0.11630482
80	0x3d9a8a09	0.07545859
81	0xbd332992	-0.043740816
82	0xbdaf6181	-0.08563519
83	0xbde8d245	-0.11368231
84	0x3da19ca2	0.078912035
85	0x3e1e821c	0.1547932
86	0x3d824f9d	0.06362841
87	0xbc7165d0	-0.014733747
88	0x3e6462ad	0.22303267
89	0x3e3a1684	0.18172652
90	0xbe0c7dd3	-0.13719873
91	0xbe0949ee	-0.13407108
92	0xbd3cec34	-0.0461237
93	0x3e9a9bf9	0.30197123
94	0x3e03c3b0	0.12867618
95	0xbd868b2d	-0.065695144
96	0x3da4057b	0.08008858
97	0x3aab0a5a	0.001304935
98	0xbdd2b4d0	-0.102883935
99	0x3e01a867	0.12661897
