iknet.onnx (onnx, 837112 bytes, 12 tensors)

36 f4 [7, 400]
0	0x3e876985	0.26447693
1	0x3f2912f7	0.66044563
2	0x3ec78096	0.3896529
3	0xbf0fa2b3	-0.56107634
4	0xbe1f18a6	-0.15536746
5	0x3d8a40e0	0.06750655
6	0xbd8871e9	-0.06662352
7	0xbe1c7f1b	-0.15282862
8	0xbeb393be	-0.35073656
9	0xbe8943c1	-0.26809505
10	0xbe975f33	-0.2956482
11	0x3eac35e8	0.33634877
12	0x3da28f46	0.079374835
13	0x3f2292d4	0.6350529
14	0xbd0b4b25	-0.03400721
15	0xbe59e016	-0.21276888
16	0xbf1553b9	-0.58330876
17	0xbe07a3db	-0.132461
18	0xbee929b3	-0.45539626
19	0xbe2bb8dd	-0.16769738
20	0xbefb8988	-0.49128366
21	0xbe8de33a	-0.27712423
22	0xbe1af8bc	-0.15133947
23	0xbe86a728	-0.26299405
24	0x3ea54666	0.32280272
25	0x3e901adc	0.28145492
26	0x3df7d584	0.12101272
27	0xbf951460	-1.1646843
28	0xbe4af7b9	-0.19821061
29	0xbf20d598	-0.6282592
30	0x3f28f1c3	0.659939
31	0xbebfd65d	-0.37468234
32	0x3da6ac5f	0.08138346
33	0x3d9fb0e5	0.07797412
34	0x3de0d1fb	0.109775506
35	0x3ec556c4	0.3854276
36	0x3ed7c0fb	0.4213942
37	0x3f172830	0.59045696
38	0xbea64ef8	-0.32482123
39	0xbe0f41b1	-0.13989903
40	0x3e16a6a1	0.14712001
41	0x3e2ec400	0.17066956
42	0xbde4dcfb	-0.11174961
43	0x3ed2db84	0.41183102
44	0xbda24b14	-0.07924476
45	0x3e142613	0.14467649
46	0xbe23df7f	-0.16003226
47	0xbe780411	-0.24220301
48	0x3eef2144	0.46705067
49	0xbf1cbe45	-0.6122783
50	0xbf3532ac	-0.70780444
51	0xbf0b6978	-0.5445781
52	0xbe8fe88f	-0.28107116
53	0x3e76955e	0.24080417
54	0x3e8a69e6	0.2703392
55	0xbef974ea	-0.4872201
56	0xbd02699c	-0.031839
57	0xbe82ea31	-0.255693
58	0x3df91a67	0.12163239
59	0xbf083d4a	-0.5321852
60	0xbe238559	-0.15968837
61	0xbea173c9	-0.3153365
62	0xbe93fec5	-0.2890531
63	0x3cf7d5e4	0.030253358
64	0xbed9847c	-0.4248389
65	0xbec85aae	-0.39131683
66	0xbea2c49b	-0.31790623
67	0xbed4969a	-0.4152115
68	0xbf14a865	-0.5806945
69	0xbf0f0163	-0.5586149
70	0xbee302c4	-0.44338048
71	0x3e6fc60a	0.2341539
72	0x3ec5c2f2	0.38625294
73	0xbed938a8	-0.42426038
74	0x3ebe59e8	0.37177968
75	0xbe62ed0c	-0.22160739
76	0xbe258e07	-0.1616746
77	0xbf3b1714	-0.7308209
78	0x3ead142e	0.33804458
79	0xbe3d927c	-0.1851291
80	0xbeb2fc21	-0.34957984
81	0x3e831027	0.2559826
82	0xbc999559	-0.018747972
83	0xbe54a6a4	-0.20766693
84	0xbeb437b5	-0.3519875
85	0xbf5584cb	-0.8340575
86	0xbeef7104	-0.46765912
87	0xbe40453a	-0.18776408
88	0xbe9737da	-0.295348
89	0xbe910a2a	-0.28328067
90	0xbed5cb3b	-0.41756615
91	0xbe5fbc26	-0.21849117
92	0xbe1e629b	-0.15467303
93	0x3e453251	0.19257475
94	0xbe5da29a	-0.21644059
95	0xbefa9689	-0.48942974
96	0x3f4efd67	0.8085541
97	0x3e4640d0	0.19360662
98	0xbe2a03bf	-0.16602992
99	0x3e97910e	0.29602855
100	0x3e88785f	0.26654336
101	0xbf9739cb	-1.1814512
102	0xbe9f6680	-0.3113289
103	0x3eb1c27e	0.34718698
104	0x3ebba74f	0.36651084
105	0x3e6f73e8	0.23384058
106	0x3ea18f0a	0.31554443
107	0xbdab9259	-0.08377523
108	0x3f0034a7	0.5008034
109	0xbd2666c3	-0.040625345
110	0xbe1eefd0	-0.15521169
111	0xbeb66b8e	-0.35628933
112	0x3e82847d	0.25491706
113	0xbe6c7c4c	-0.2309429
114	0xbf0ed92f	-0.55800146
115	0x3b63105f	0.003464721
116	0x3ddcb112	0.10775961
117	0xbf06da60	-0.52676964
118	0xbe5e46dd	-0.2170672
119	0x3f41bba1	0.75676924
120	0xbf2cabca	-0.6744963
121	0xbebce5e4	-0.36894143
122	0x3eb26eef	0.3485026
123	0xbe9bd7e6	-0.30438155
124	0xbda44679	-0.08021254
125	0xbeec07a2	-0.46099573
126	0xbf8bbfa3	-1.0917858
127	0xbde057d4	-0.10954252
128	0xbe3c8b4d	-0.18412514
129	0xbee41b32	-0.44551998
130	0xbebc2cd1	-0.36752942
131	0xbce4e819	-0.027942704
132	0xbf106a43	-0.5641214
133	0x3e2b3569	0.16719593
134	0x3ea27dc7	0.31736585
135	0x3e835bf4	0.25656092
136	0x3e93dcc4	0.28879368
137	0xbd701e4c	-0.058622643
138	0x3ed432f2	0.41445118
139	0xbf0b28ec	-0.54359317
140	0xbea933ac	-0.33047235
141	0x3d8678b2	0.065659896
142	0x3e563e9d	0.20922323
143	0xbe95b0c7	-0.29236433
144	0xbe87fc25	-0.2655956
145	0x3a0b388a	0.0005310854
146	0xbf344a38	-0.7042575
147	0x3e077276	0.13227257
148	0x3ea0fa6c	0.31441057
149	0x3e698138	0.228032
150	0x3ee36e0f	0.44419906
151	0x3ed85057	0.42248794
152	0x3d61ed53	0.05515797
153	0xbeb08f55	-0.34484354
154	0x3e917f4e	0.28417438
155	0xbe196245	-0.14978893
156	0x3e3463f6	0.17616257
157	0x3cfa09a3	0.030522173
158	0xbe38af68	-0.18035662
159	0x3d8c9008	0.06863409
160	0x3d29b306	0.041430496
161	0xbb4a9c10	-0.0030915774
162	0x3c3697cf	0.011144592
163	0xbea9780d	-0.33099404
164	0x3f2279a0	0.63466835
165	0x3e295504	0.16536337
166	0xbe8348cb	-0.25641474
167	0x3e84ca56	0.2593562
168	0x3d37918e	0.044816546
169	0x3f256b87	0.646172
170	0xbed709d3	-0.41999683
171	0x3e57ed55	0.21086629
172	0xbecfd85b	-0.40594754
173	0x3e3f0d5b	0.18657438
174	0xbe5fc1dc	-0.21851295
175	0xbf118049	-0.5683637
176	0xbea11b33	-0.31466064
177	0xbe2fd671	-0.17171647
178	0x3e0d27fe	0.13784787
179	0x3e704596	0.23464045
180	0xbefaa474	-0.48953593
181	0x3ee9110a	0.45520812
182	0x3d6b21dd	0.05740534
183	0xbf103590	-0.5633173
184	0x3d600087	0.054688003
185	0xbef33685	-0.47502533
186	0x3e86a29c	0.26295936
187	0x3e0cc86c	0.1374833
188	0x3ed5f474	0.41788065
189	0x3dee11ad	0.11624465
190	0xbe3331d0	-0.1749947
191	0x3e716275	0.23572715
192	0x3ebac35c	0.36477172
193	0xbad894c8	-0.0016523832
194	0xbeb8b231	-0.3607345
195	0xbebba8dd	-0.3665227
196	0xbe1bb930	-0.15207362
197	0xbf083cf7	-0.53218025
198	0xbd13b699	-0.03606281
199	0xbe627a5b	-0.22116987
200	0xbe5ded7b	-0.21672623
201	0x3e5f2c8a	0.21794334
202	0x3ebaa724	0.36455643
203	0x3e5ad29d	0.21369405
204	0x3e1dd374	0.15412694
205	0xbe9a628f	-0.3015332
206	0xbe1a9a2f	-0.15097879
207	0xbb4bbefa	-0.0031089173
208	0x3ef02745	0.4690496
209	0xbf0460f7	-0.51710457
210	0x3e45822e	0.19287941
211	0x3ec507c9	0.38482502
212	0x3d90563d	0.07047699
213	0xbe3be3ba	-0.1834859
214	0x3ea01c67	0.3127167
215	0xbe9a430a	-0.30129272
216	0x3d8cfc5f	0.068840735
217	0xbf15f5c8	-0.5857816
218	0x3cc3f8f1	0.023922415
219	0xbe3498c8	-0.17636406
220	0xbddb871e	-0.10719131
221	0xbc8640e9	-0.016388373
222	0xbea8318d	-0.32850304
223	0xbef6ce74	-0.48204386
224	0x3eb1ef52	0.347529
225	0xbec5e752	-0.38653046
226	0xbed5063a	-0.41606313
227	0xbed1ff8d	-0.41015282
228	0xbda34d1d	-0.079736926
229	0x3e30212b	0.17200153
230	0xbd0cd781	-0.034385208
231	0xbf64c243	-0.8935892
232	0x3e86bf21	0.26317695
233	0xbf17399b	-0.59072274
234	0xbead35f6	-0.3383023
235	0xbe36c9e9	-0.1785046
236	0x3f1e290d	0.6178139
237	0x3e8bd95f	0.27314278
238	0x3c9d7142	0.019219045
239	0xbd30fe0d	-0.04321103
240	0xbebb92a1	-0.36635306
241	0xbd2d4dcc	-0.04231052
242	0xbeb5d50a	-0.35514098
243	0xbeab26c1	-0.33428004
244	0xbec658c3	-0.38739595
245	0x3da1602d	0.07879672
246	0x3ef07123	0.46961316
247	0x3dfdaf82	0.12386991
248	0x3df1c96c	0.11805996
249	0xbda1aa84	-0.078938514
250	0x3eddc3e4	0.43313515
251	0xbe30a45d	-0.172502
252	0xbf336aaa	-0.7008463
253	0x3be5d21e	0.0070135733
254	0xbeae394a	-0.34028083
255	0xbeb9b9cb	-0.3627456

37 f4 [400, 300]
0	0xbc9a46ba	-0.018832553
1	0x3c99bac7	0.01876582
2	0xbc4f0667	-0.012635804
3	0x3d18a0a7	0.037262585
4	0xbc93a2e0	-0.018022
5	0x3a8d5ecd	0.0010785699
6	0x3cffa61d	0.031207139
7	0xbd48336f	-0.048877176
8	0x3cc6e643	0.02427972
9	0x3d1d710d	0.03843789
10	0x3ca6b023	0.02034766
11	0x3bfa218d	0.007633394
12	0x3d36fe67	0.04467621
13	0xbd0bbf05	-0.034117717
14	0x3b1662cd	0.0022947073
15	0xbd164a32	-0.036691852
16	0x3ca0480d	0.019565606
17	0x3d3b7aca	0.045771398
18	0x3d3b34e3	0.045704734
19	0xbcfc5d13	-0.0308061
20	0x3bdb5cda	0.0066944184
21	0x3cdb8d5a	0.0268008
22	0x3c8f0087	0.017456306
23	0x3cf0db0a	0.029401321
24	0x3c8751a7	0.016518427
25	0x3c5b9b47	0.01340372
26	0xbd158705	-0.036505718
27	0x3c259080	0.010105252
28	0x3bc2d70d	0.005946046
29	0x3d113f22	0.0354606
30	0x3c99b747	0.018764151
31	0xbd2a0ddf	-0.041517135
32	0xbb9993f3	-0.0046868264
33	0xbcaa3ab7	-0.02077995
34	0xbd305cb3	-0.043057155
35	0xbc7590da	-0.014988149
36	0xbca762aa	-0.020432789
37	0x3cb95cd0	0.022627264
38	0x3c4daf00	0.01255393
39	0xbd104e5f	-0.03523099
40	0xbcf16b6d	-0.02947017
41	0xbca7917a	-0.02045511
42	0xbca0abc7	-0.01961316
43	0x3d3e48ca	0.046456136
44	0x3c47dfc7	0.012199349
45	0xbd0f7f37	-0.03503343
46	0xbc92558d	-0.01786306
47	0xbc73d747	-0.014882869
48	0x3d436af3	0.047709417
49	0x3c02f4ba	0.007992918
50	0xbcbe91b7	-0.023262842
51	0x3991bc00	0.00027796626
52	0xbd053037	-0.032516684
53	0x3c589027	0.013217962
54	0x3ca14d20	0.019690096
55	0xbd4aea85	-0.04954006
56	0xbd35c4df	-0.044377204
57	0x3c36b21a	0.011150861
58	0x3bf71727	0.007540602
59	0x3d2650ca	0.04060439
60	0xbca31d03	-0.019911295
61	0xbd2c358b	-0.04204325
62	0xbd125923	-0.03572954
63	0x3b711567	0.0036786438
64	0xbbb10133	-0.0054017543
65	0x3c9fd13a	0.019508947
66	0x3cb6f2ea	0.022332627
67	0x3c8e22d0	0.017350584
68	0xbbb1774d	-0.005415833
69	0xbd3ed6d3	-0.04659159
70	0xbc949ebd	-0.018142099
71	0xbcf7176a	-0.030162532
72	0xbd0efd1b	-0.03490935
73	0x3ab8089a	0.0014040649
74	0xbc3f5f9a	-0.011680508
75	0xbd434563	-0.047673594
76	0x3cc00b10	0.023442775
77	0xbcd80f87	-0.026374592
78	0x3c97defd	0.018538946
79	0xbd3e53fa	-0.046466805
80	0xbd2fd968	-0.042931944
81	0x3d43c182	0.047791965
82	0x3c68f17a	0.014217729
83	0xbbc99a67	-0.0061524394
84	0x3d259f9d	0.040435422
85	0x3d429d42	0.047513254
86	0xbc8ad8b0	-0.016949028
87	0x3d2630e0	0.040573955
88	0xbd35bfbd	-0.04437231
89	0xbca8b087	-0.020591987
90	0x3bc10533	0.0058905124
91	0xbcf175ad	-0.029475057
92	0x3c647db3	0.013945985
93	0x3b397833	0.0028300404
94	0x3d19e30b	0.03757004
95	0x3cf476d7	0.029841824
96	0xbd22d285	-0.03975155
97	0xbd17cb7d	-0.037059296
98	0xbccf26fd	-0.025287146
99	0xbd34d002	-0.044143684
100	0x3c434f6d	0.011920792
101	0xbd1919fb	-0.037378293
102	0x3d28efef	0.041244444
103	0x3c953370	0.018213004
104	0xbc9e2afa	-0.019307602
105	0x3cfd30e0	0.030907094
106	0xbc873177	-0.016503079
107	0xbca8c60a	-0.020602245
108	0x3cea533d	0.028604144
109	0xbc7462e0	-0.014916152
110	0x3ceb58aa	0.028728802
111	0x3d289fdd	0.041168083
112	0x3cbffdf7	0.02343653
113	0x3d023d9a	0.03179703
114	0x3d3668f8	0.0445337
115	0x3d119002	0.035537727
116	0xbcdd231d	-0.026994282
117	0xbb8a17c0	-0.004214257
118	0x3d22e528	0.03976932
119	0xbd1d48a3	-0.03839935
120	0xbcae0ad0	-0.02124539
121	0xbca730d0	-0.020409018
122	0xbad7bb00	-0.0016458929
123	0x3c65bc1a	0.014021898
124	0x3c6e89e7	0.014559246
125	0x3d2b9565	0.04189052
126	0x3cd9a347	0.026567115
127	0xba74599a	-0.0009321213
128	0x3cd52bb0	0.026021808
129	0x3d16c02a	0.036804356
130	0xbc1c135a	-0.009526098
131	0xba508e67	-0.000795579
132	0x3d1aa23a	0.037752368
133	0x3b6a269a	0.0035728575
134	0x3d2942fa	0.04132364
135	0x3c3fa26d	0.01169644
136	0xbd4c0e60	-0.049818397
137	0xbc3396fa	-0.010961289
138	0x3c90c327	0.01767118
139	0xbc8aed33	-0.016958809
140	0xbbe2fc4d	-0.0069270493
141	0x3cbe8aca	0.02325954
142	0x3d0ba34b	0.034091275
143	0x3ce5382a	0.027980883
144	0x3d1daf03	0.038496982
145	0xbd0a6b7d	-0.033793915
146	0x3cc8a3d3	0.02449218
147	0xbd0251da	-0.03181634
148	0x3cd45eea	0.025924165
149	0xbcf77fe0	-0.030212343
150	0x3d0e7462	0.03477896
151	0xbc9791e3	-0.018502181
152	0x3c77ca60	0.015123934
153	0x3c79e860	0.015253156
154	0x3bd8ebc0	0.0066199005
155	0xbc259c80	-0.010108113
156	0xbc9f948d	-0.019480014
157	0x3c082720	0.008310109
158	0x3bbfd367	0.0058540585
159	0xbbb2ff9a	-0.005462599
160	0x3d0dc4f3	0.034611654
161	0xbc8a8ec7	-0.016913785
162	0x3c9c50bd	0.019081468
163	0x3aef8a67	0.00182755
164	0x3d01f1c0	0.03172469
165	0x3b81c033	0.0039596795
166	0x3caf9697	0.021434112
167	0x3cb764c3	0.022386914
168	0x3d471b0b	0.048609775
169	0x3d2a7f00	0.041625023
170	0xbc357a0d	-0.011076462
171	0x3c97f7cd	0.018550778
172	0xbd0e7010	-0.03477484
173	0xbd18a9c3	-0.037271272
174	0xbd3f5065	-0.04670753
175	0xbc88c08a	-0.016693372
176	0x3cb11293	0.021615302
177	0x3d47252b	0.04861943
178	0x3cf2bf03	0.029632097
179	0x3b694d33	0.0035598993
180	0xbb27e9cd	-0.0025621534
181	0xbc2506a7	-0.010072387
182	0x3c53029a	0.012879038
183	0x3cdb2e7d	0.026755566
184	0x3c39e76d	0.01134668
185	0xbcb9ccba	-0.022680629
186	0xbd1284e5	-0.03577127
187	0xbcd42460	-0.025896251
188	0x3cc1fa9d	0.023679072
189	0x3cd6f8f0	0.02624175
190	0x3cb975b7	0.022639139
191	0x3ca6ca20	0.020360053
192	0xbd07eb9f	-0.03318369
193	0xbc3b722d	-0.011440796
194	0x3c02a5f3	0.007974136
195	0x3cbe2170	0.023209304
196	0xbd367987	-0.04454949
197	0x3cfa5510	0.03055814
198	0xbcbac177	-0.02279733
199	0x3cac1387	0.021005405
200	0xbc23df93	-0.010002035
201	0x3c7bfe5a	0.015380466
202	0x3ce05923	0.027386254
203	0xbbc3645a	-0.0059628906
204	0x3cdd52e0	0.027017057
205	0xbc2f11f3	-0.010685432
206	0x3b9ce800	0.0047883987
207	0x3d4a03b2	0.04931993
208	0xbc970bdd	-0.018438274
209	0x3c8cf10d	0.017204786
210	0xbd478bcd	-0.04871731
211	0xbd2fd368	-0.042926222
212	0x3d049ef7	0.032378163
213	0xb960a99a	-0.00021425486
214	0xbd137402	-0.035999306
215	0x3d303ff3	0.043029737
216	0x3d2ec35d	0.04266678
217	0x3c51a313	0.012795228
218	0xbd1f7790	-0.038932383
219	0x3d2bd5fa	0.04195211
220	0x3d2d774b	0.042350095
221	0x3ce287f0	0.02765271
222	0xbd44ec75	-0.048077065
223	0x3d2c70cd	0.042099763
224	0x3d344593	0.044011664
225	0xbcea3287	-0.028588546
226	0xbc45e2b3	-0.012077975
227	0x3b2e4acd	0.0026594878
228	0x3c6c85c7	0.014436192
229	0xbc0c6940	-0.008570015
230	0xb862199a	-5.3906442e-05
231	0xbd199da3	-0.03750385
232	0xbccf9aed	-0.025342429
233	0xbd0a103f	-0.0337069
234	0x3d2b2a67	0.041788485
235	0xbd48c49d	-0.04901563
236	0xbc2aa92d	-0.010416311
237	0x3c92233a	0.017839063
238	0xbd0c2a60	-0.0342201
239	0x3c9e5d30	0.019331545
240	0x3d17836d	0.03699057
241	0xbd20f7a8	-0.039298683
242	0xbd492395	-0.0491062
243	0x3ab2cccd	0.0013641358
244	0xbcac1940	-0.021008134
245	0x3d059ed8	0.03262219
246	0x3d3af1c0	0.045640707
247	0xbb330e00	-0.0027321577
248	0xbbe9f78d	-0.007140106
249	0xbc8517ea	-0.016246755
250	0x3aff0167	0.0019455374
251	0xbbcbd327	-0.0062202397
252	0xbd2c094a	-0.042001046
253	0x3c4ce747	0.012506313
254	0x3d47b347	0.048754957
255	0x3ba0d7da	0.004908544

38 f4 [300, 200]
0	0xbdb63109	-0.088960715
1	0x3cc17fb1	0.023620458
2	0xbd863ae0	-0.06554198
3	0xbebcaef8	-0.3685224
4	0xbced0e03	-0.028937345
5	0xbcc4a3bf	-0.024003861
6	0xbdd2d711	-0.10294927
7	0xbd28b4e3	-0.041188132
8	0x3cdf726d	0.027276242
9	0xbdd2e5b5	-0.102977194
10	0xbd59b7f8	-0.053153962
11	0x3dad944d	0.08475552
12	0x3b4ef8f2	0.0031581488
13	0xbd0bfcd7	-0.034176674
14	0xbed44da0	-0.41465473
15	0xbbaad146	-0.0052129356
16	0xbde184b3	-0.110116385
17	0x3d46ef31	0.048567954
18	0xbe135c01	-0.14390565
19	0xbe721fbd	-0.2364492
20	0xbbdbd695	-0.00670893
21	0xbcaf3cb2	-0.021391246
22	0xbc44aa30	-0.0120034665
23	0xbdb35bf0	-0.0875777
24	0xbdd6de09	-0.104915686
25	0xbdd53ab1	-0.10411585
26	0xbd3b4e37	-0.04572889
27	0xbca8b6c4	-0.020594962
28	0xbe81b52c	-0.25333536
29	0xbdc6a1fc	-0.09698865
30	0xbc53e4d6	-0.012932977
31	0x3d2e06c1	0.04248691
32	0xbb65bba8	-0.0035054479
33	0xbc1d54a8	-0.009602703
34	0xbe551a53	-0.20810823
35	0xbdedc2e4	-0.11609438
36	0xbe4b7a4b	-0.1987087
37	0x3cf39058	0.029731914
38	0x3cc3d9ee	0.023907628
39	0xbcdb755b	-0.026789358
40	0x3d85d474	0.06534663
41	0xbe6a2889	-0.22867025
42	0xbc15325a	-0.009106243
43	0xbe04570d	-0.12923832
44	0x3d189e96	0.037260614
45	0xbc20d716	-0.0098169055
46	0x3dc1235b	0.09430572
47	0x3c14583d	0.009054241
48	0x3bbbb5f9	0.00572848
49	0xbd3d15f9	-0.046163533
50	0x3ba1ad9c	0.004934026
51	0xbcf897ea	-0.030345876
52	0xbde79a19	-0.11308689
53	0xbef1019f	-0.4707155
54	0xbdd89273	-0.10574808
55	0xbd6ef43d	-0.058338393
56	0xbebb5de3	-0.36595067
57	0xbda0d812	-0.07853712
58	0xbda09e16	-0.078426525
59	0xbe0de4b8	-0.1385678
60	0xbdb99d38	-0.0906319
61	0xbcbbdbc1	-0.022931935
62	0xbd0794b9	-0.033100817
63	0xbded6cea	-0.11593039
64	0xbec92981	-0.39289477
65	0xbd26af5a	-0.040694572
66	0xbd7f73f5	-0.062366445
67	0xbe09cccb	-0.13457029
68	0xbe18d435	-0.149247
69	0xbe3a226a	-0.1817719
70	0xbd870afd	-0.06593893
71	0xbd7c571b	-0.061606508
72	0xbca789b1	-0.020451399
73	0x3e17debd	0.14831062
74	0x399a5b7d	0.00029441333
75	0xbddfaca7	-0.10921603
76	0xbdba9102	-0.09109689
77	0x3d0f71d8	0.03502068
78	0xbdc2c014	-0.09509292
79	0x3cba89ae	0.022770729
80	0xbd7ce097	-0.061737623
81	0xbce890c7	-0.028389348
82	0xbd05035c	-0.032473907
83	0xbcbd4998	-0.023106381
84	0xbe074a3d	-0.13211913
85	0xbd30de51	-0.043180767
86	0xbdea3fee	-0.11437975
87	0xbd8301b2	-0.06396808
88	0xbd1a8bf0	-0.03773111
89	0xbe0e88dc	-0.13919395
90	0xbd953d8d	-0.072871305
91	0xbdf9e595	-0.122019924
92	0x3e108df2	0.14116648
93	0xbe390f8a	-0.18072334
94	0xbde9f8e9	-0.11424429
95	0xbde019be	-0.1094241
96	0xbd647f4a	-0.055785455
97	0xbd1c6b91	-0.03818852
98	0xbdbfd967	-0.09367638
99	0x3ea92fbd	0.33044234
100	0xbd4993ff	-0.049213406
101	0xbd9cf736	-0.07664339
102	0xbe566a46	-0.20938978
103	0xbdb4d2b9	-0.08829255
104	0xbe590176	-0.21191964
105	0xbeaf8930	-0.34284353
106	0xbc95f887	-0.018306984
107	0xbbe57e59	-0.007003587
108	0xbd2e5c08	-0.042568237
109	0x3b5db8cb	0.003383207
110	0xbd3aaa56	-0.0455726
111	0x3e2626ec	0.16225785
112	0x3d4863c4	0.04892327
113	0xbd309d59	-0.04311881
114	0xbd461cee	-0.048367433
115	0xbd7a8984	-0.0611663
116	0xbd389565	-0.04506435
117	0xbcda7de2	-0.026671354
118	0xbd9ff881	-0.0781107
119	0xbdaeab4e	-0.085287675
120	0xbdbb8eb7	-0.0915808
121	0xbea851a6	-0.32874793
122	0xbd8ff8ac	-0.07029852
123	0xbce38d84	-0.02777744
124	0xbd24f1df	-0.04026973
125	0xbd7c7e25	-0.06164374
126	0xbdbe22fb	-0.09284016
127	0xbd149b7b	-0.03628109
128	0x3c050e78	0.008121125
129	0xbd65461c	-0.055975065
130	0x3d999edf	0.075010054
131	0xbda1dc09	-0.079032965
132	0xbef9c1ae	-0.48780578
133	0xbd2c5f24	-0.04208292
134	0x3c8ae51d	0.016954953
135	0xbdaea95b	-0.08528396
136	0xbd644aaa	-0.055735268
137	0xbdd2838d	-0.102789976
138	0xbd11673c	-0.035498843
139	0xbd257665	-0.040396113
140	0xbe401663	-0.1875854
141	0xbed03cd4	-0.40671408
142	0xbe6952c0	-0.22785473
143	0xbd8dbfd4	-0.06921354
144	0xbd067e36	-0.032835208
145	0xbd13b020	-0.036056638
146	0xbb802b41	-0.0039114063
147	0xbd743333	-0.05961914
148	0xbd5da860	-0.054115653
149	0xbdce9a0d	-0.100879766
150	0x3d3ac373	0.04559655
151	0xbd118180	-0.03552389
152	0xbe016ae1	-0.12638427
153	0xbd637096	-0.055527292
154	0xbd8c3705	-0.06846432
155	0xbd3f7f39	-0.04675219
156	0x3ddf5327	0.10904532
157	0x3d0a3931	0.03374595
158	0xbb18fad5	-0.0023342867
159	0xbe7a1561	-0.24422218
160	0xbc0c8d86	-0.008578664
161	0x3cdf10c0	0.027229667
162	0xbd746966	-0.05967083
163	0xbbb89a52	-0.005633631
164	0xbe2f0575	-0.17091925
165	0xbe348079	-0.17627133
166	0xbd4ca85c	-0.049965248
167	0x3ae4a099	0.0017442881
168	0xbd19251a	-0.0373889
169	0xbdd379d0	-0.10325968
170	0xbbd9fe08	-0.0066525973
171	0x3d345328	0.044024616
172	0xbd707ae8	-0.058710963
173	0xbd9e9679	-0.07743544
174	0x3d5ceb01	0.053935055
175	0xbd335c61	-0.04378927
176	0xbe86869d	-0.26274577
177	0xbcd79e32	-0.02632055
178	0x3e0692ff	0.13142012
179	0xbe4690ff	-0.19391249
180	0xbe224f2b	-0.15850513
181	0x3d0efe79	0.034910653
182	0xbce41cce	-0.027845766
183	0x3d941a62	0.072315946
184	0xbd5a625e	-0.053316467
185	0x3b762768	0.003756011
186	0xbdc68d9a	-0.09694977
187	0xbd586b70	-0.052836835
188	0xbde00960	-0.10939288
189	0xbcdcfa5e	-0.026974853
190	0xbd88cd97	-0.06679838
191	0xbc9170c8	-0.017753974
192	0xbcababc5	-0.02095593
193	0x3d7100ed	0.058838774
194	0xbd30f950	-0.043206513
195	0xbc5a3b44	-0.013319794
196	0xbe0bbabb	-0.13645451
197	0x3d2c871d	0.04212104
198	0xbee4d6fb	-0.44695267
199	0xbd86bbfc	-0.06578824
200	0x3d7cdcb8	0.06173393
201	0x3d28b731	0.04119033
202	0x3d168196	0.036744677
203	0xbd770683	-0.060308944
204	0xbb507fc2	-0.003181443
205	0x3db2eca6	0.08736543
206	0x3dd09aba	0.10185762
207	0xbc06f5ba	-0.008237297
208	0x3d0b4152	0.03399784
209	0xbd269f39	-0.04067919
210	0x3da97b24	0.0827544
211	0xbc945907	-0.018108858
212	0x3d5b90d2	0.05360491
213	0xbcf56084	-0.029953249
214	0xbd986976	-0.0744199
215	0xbd97a38b	-0.0740424
216	0x3c64b98e	0.013960255
217	0x3dcfd0e8	0.101472676
218	0x3bbe4e23	0.0058076545
219	0xbcca15d9	-0.02466862
220	0x3d70ed8e	0.0588203
221	0xbd6892e9	-0.05678073
222	0x3da62b44	0.08113721
223	0xbdbaf55e	-0.09128831
224	0xbdce1e59	-0.10064382
225	0xbddd5aa3	-0.10808303
226	0xbdb56fc5	-0.08859209
227	0x3d507659	0.050894115
228	0x3d20fd51	0.03930408
229	0xbc012c4c	-0.007884096
230	0x3d177cc9	0.03698424
231	0x3d222ca3	0.03959335
232	0xbcc257f3	-0.023723578
233	0x3dcf85ff	0.101329796
234	0xbdeae1f9	-0.11468882
235	0x3c3924ca	0.011300275
236	0xbc9974f5	-0.018732527
237	0x3dc9d960	0.09855914
238	0x3d44fb12	0.048091
239	0x3d8fc6b2	0.0702032
240	0xbdab5ae9	-0.08366949
241	0x3db5b39a	0.08872147
242	0xbd8edb24	-0.069753915
243	0x3c3062bb	0.010765727
244	0x3d5b86ae	0.053595237
245	0x3c3e79ba	0.011625702
246	0xbde218b7	-0.1103987
247	0xbc158535	-0.009125997
248	0xbd709dcc	-0.058744237
249	0xbbc350ab	-0.005960544
250	0xbcd632bc	-0.026147239
251	0xbc8a54b6	-0.016886096
252	0x3dd67e6f	0.10473334
253	0xbd474c3b	-0.048656683
254	0xbd2d9d68	-0.042386442
255	0xbd2d8d6c	-0.0423712

39 f4 [200, 100]
0	0x3e41b0ef	0.18915151
1	0xbdc9a1d1	-0.09845317
2	0xbb9ee08f	-0.004848547
3	0xbdc862cd	-0.0978447
4	0x3d79c39d	0.060977567
5	0x3ca6ba3c	0.020352475
6	0xbda46dff	-0.080287926
7	0xbd2cb833	-0.042167854
8	0xbd92accd	-0.071618654
9	0xbdbbff8e	-0.091796026
10	0xbcef364c	-0.029200695
11	0xbd13385c	-0.03594242
12	0xbd2db6ba	-0.04241059
13	0x3c13a3f1	0.009011255
14	0x3e221320	0.15827608
15	0xbbbe6bfe	-0.0058112135
16	0xbc051277	-0.008122078
17	0x38ffbaac	0.00012194118
18	0xbd647de9	-0.05578414
19	0xbdd86eda	-0.10568018
20	0xbd4356bb	-0.047690134
21	0xbcbf84df	-0.023378788
22	0xbcc30f9d	-0.023811156
23	0x3cd6fbc9	0.026243107
24	0x3dc40d99	0.09572906
25	0xbd14c1ac	-0.036317512
26	0x3d22eb5e	0.039775245
27	0xbda79129	-0.08181984
28	0x3f08330d	0.532029
29	0x3d201620	0.0390836
30	0x3c376080	0.011192441
31	0xbdd1df3e	-0.10247658
32	0xbca70d60	-0.02039212
33	0xbd009c7d	-0.03139924
34	0x3c086540	0.008324921
35	0xbcfcf167	-0.030876828
36	0x3c16bea2	0.009200724
37	0xbdcf2b78	-0.10115713
38	0xbd81a87c	-0.06330964
39	0xbd8b5655	-0.06803576
40	0xbd92cbd7	-0.071677856
41	0x3c1c4577	0.009538046
42	0xbdeb119e	-0.114779696
43	0x3d837543	0.0641885
44	0x3e1560e9	0.1458775
45	0x3babe153	0.0052453666
46	0x3bf84418	0.007576477
47	0x38efbb70	0.00011431321
48	0xbc989477	-0.018625481
49	0xbcd7d5de	-0.026347097
50	0xbde76012	-0.11297621
51	0xbee39b36	-0.44454354
52	0x3e6ca8e1	0.23111297
53	0xbdaa8eff	-0.083280556
54	0xbc053a95	-0.008131643
55	0xbd4397dc	-0.047752246
56	0xba877038	-0.0010333126
57	0xbda293c0	-0.07938337
58	0x3de9ed00	0.11422157
59	0xbcce8739	-0.025210964
60	0x3cd5fa99	0.02612047
61	0xbddc4e90	-0.10757172
62	0xbdb8e000	-0.090270996
63	0x3ca9f020	0.020744383
64	0xbcfecead	-0.03110441
65	0x3d1ee285	0.038790245
66	0xbd5be4c7	-0.053684976
67	0xbdab0651	-0.08350814
68	0x3c674494	0.014115471
69	0xbd42a271	-0.047518197
70	0xbce5ea66	-0.028065871
71	0x3ced7189	0.028984802
72	0x3cc34f06	0.023841392
73	0x3d0daa69	0.034586344
74	0xbd56f68d	-0.052481223
75	0xbd78e4db	-0.06076513
76	0xbd34cd19	-0.04414091
77	0xbdba51d4	-0.09097639
78	0xbdb16e11	-0.086635716
79	0xbd157932	-0.036492534
80	0xbc906325	-0.0176254
81	0xbb8d6c55	-0.0043158927
82	0x3d460faa	0.048354782
83	0x3c2cd65b	0.010549153
84	0xbde848e2	-0.11342026
85	0x3e470722	0.19436315
86	0x3b8ad711	0.0042370637
87	0xbd9f0746	-0.07765059
88	0xbd96674a	-0.073439196
89	0xbe342dde	-0.17595622
90	0xbb958fea	-0.004564275
91	0x3c00ae69	0.007854083
92	0x3db43201	0.087986
93	0xbdf935bd	-0.12168453
94	0xbcd2a059	-0.025711225
95	0xbb160e24	-0.0022896612
96	0xbd15995e	-0.036523215
97	0xbdaf35aa	-0.085551575
98	0xbd281195	-0.041032393
99	0xbd9b2170	-0.07574737
100	0xbd65a525	-0.056065697
101	0x3dd4244d	0.10358486
102	0xbd279fdc	-0.04092394
103	0xbd6ed836	-0.058311664
104	0xbd60831d	-0.05481254
105	0x3c7e90b6	0.015537431
106	0xbd7d316b	-0.061814707
107	0xbd4eb839	-0.050468657
108	0x3be47513	0.006971964
109	0x3d576091	0.052582327
110	0x3dbc6d24	0.092005044
111	0x3d04e326	0.032443188
112	0x3dcdeba8	0.100547135
113	0x3d1859fb	0.037195187
114	0xbc6deee8	-0.014522292
115	0xbcfd9b1a	-0.030957747
116	0x3d802aa5	0.06258134
117	0xbdf44fbf	-0.11929273
118	0xbc5f4ed3	-0.013629633
119	0xbd0cc14f	-0.03436404
120	0x3d222c53	0.039593052
121	0xbd55c8e7	-0.05219355
122	0xbbf94ff0	-0.0076084062
123	0x3d0f904f	0.035049733
124	0x3da4f853	0.080551766
125	0x3d5df7d2	0.054191418
126	0x3c72756d	0.014798504
127	0xb9107ac7	-0.00013778648
128	0x3d2c8e9d	0.042128194
129	0x3c8f35fb	0.017481795
130	0xbd492504	-0.049107566
131	0x3ba0ad38	0.004903462
132	0xbdc61ef5	-0.09673873
133	0x3c93b71c	0.01803165
134	0xbdb34c96	-0.08754842
135	0x3da2a950	0.0794245
136	0xbbf58b53	-0.0074934154
137	0x3d17f1a5	0.037095685
138	0xbdaddbc2	-0.08489181
139	0x3d8d9d1e	0.06914733
140	0xbcd9863d	-0.026553268
141	0xbc938a13	-0.018010175
142	0xbdedd0ab	-0.11612066
143	0x3dd300d7	0.103028946
144	0xba1b506c	-0.00059247646
145	0x3c9516e4	0.018199392
146	0xbdeeede2	-0.11666466
147	0xbddf6ab9	-0.109090276
148	0x3db8cad8	0.090230644
149	0x3c5177eb	0.012784938
150	0x3d365820	0.044517636
151	0xbc25d04a	-0.010120461
152	0x3db722cb	0.08942183
153	0xbd8de128	-0.06927711
154	0x3bd2f5a3	0.0064379736
155	0x3d446a39	0.047952864
156	0x3dde3f54	0.10851923
157	0xbcd5c349	-0.026094096
158	0x3d880131	0.06640852
159	0xbd4995ce	-0.04921513
160	0x3d18594a	0.037194528
161	0xbd301650	-0.04299003
162	0xbd11205b	-0.035431247
163	0x3d138103	0.036011707
164	0xbcf9c989	-0.030491607
165	0x3db5fbcd	0.08885918
166	0x3dd19e53	0.10235276
167	0xbdf54227	-0.11975508
168	0x3dd6fce7	0.10497456
169	0x3c5ae82b	0.013361017
170	0xbdb4c82e	-0.08827244
171	0x3ce34e3e	0.02774727
172	0x3d072dd9	0.033002708
173	0x3daab80a	0.08335884
174	0xbdc99208	-0.098423064
175	0x3d63599a	0.055505373
176	0xbcd6f8bf	-0.026241658
177	0xbc1fd1fc	-0.009754654
178	0xbe052622	-0.13002828
179	0xbd9f0810	-0.0776521
180	0x3dc1dc31	0.09465826
181	0xbcf90e3d	-0.030402297
182	0x3dcfcb16	0.101461574
183	0x3c2a3bb1	0.010390208
184	0xbdb5c16f	-0.08874785
185	0x3e184555	0.14870198
186	0x3da6857e	0.0813093
187	0xbcc4b06d	-0.024009908
188	0xbbb44e17	-0.005502473
189	0x3be23ec2	0.006904454
190	0xbd28d902	-0.04122258
191	0xbccc2ad2	-0.024922762
192	0xbdd0734b	-0.101782404
193	0x3aabe6ce	0.001311505
194	0x3dba1698	0.09086341
195	0xbdbf9d5d	-0.093561865
196	0x3d554d5f	0.05207574
197	0x3e024dae	0.12724945
198	0xbde45195	-0.11148373
199	0xbd3c423a	-0.045961596
200	0xbbbf8e80	-0.0058458447
201	0xbc4ed319	-0.012623572
202	0xbd656eaf	-0.05601376
203	0xbdccbbd7	-0.09996765
204	0x3c07b4a1	0.008282811
205	0xbd09af8a	-0.033614673
206	0xbdbc7e14	-0.09203735
207	0xbd448951	-0.047982518
208	0xbd55db17	-0.052210893
209	0xb94911a4	-0.00019175425
210	0xbc281f6d	-0.010261399
211	0xbd9ccc2c	-0.0765613
212	0xbd56cd19	-0.05244169
213	0xbd53a232	-0.051668353
214	0x3b487e11	0.003059272
215	0x3b89d753	0.004206577
216	0xbd58163d	-0.052755583
217	0xbd7bda5e	-0.061487548
218	0xbcdc77f3	-0.026912665
219	0xbdf5a05c	-0.11993477
220	0xbd80b6af	-0.06284844
221	0xbde2eb40	-0.110800266
222	0xbda72249	-0.08160836
223	0xbcc1dfa7	-0.023666216
224	0x3d9fb303	0.07797816
225	0xbdb1a370	-0.08673751
226	0x3d848c1b	0.064720355
227	0xbd61df75	-0.055144746
228	0xbcd7ab64	-0.026326843
229	0xbd8aaee9	-0.06771643
230	0xbd3250be	-0.043534033
231	0xbdfecb83	-0.124411605
232	0xbdd8c7cf	-0.105849855
233	0x3d1336c8	0.035940915
234	0xbcd854e3	-0.026407665
235	0x3c82cadf	0.015965877
236	0xbd890adc	-0.066915244
237	0xbdd9893d	-0.10621879
238	0xbd29a24e	-0.04141455
239	0x3df06810	0.11738598
240	0xbd982651	-0.07429183
241	0xbded3796	-0.11582868
242	0x3ba5f6ff	0.0050648446
243	0x3df32309	0.11871917
244	0x3d08e6ca	0.033423223
245	0xbccfb2f4	-0.025353886
246	0xbde4e1bf	-0.1117587
247	0xbdceb991	-0.10093988
248	0x3cb11106	0.021614563
249	0xbc95ae8b	-0.018271705
250	0xbcc99a12	-0.0246096
251	0xbd42797a	-0.04747913
252	0x3dd346a3	0.10316207
253	0xbdb367b4	-0.08760014
254	0x3c73f253	0.014889318
255	0xbdd9b608	-0.10630423

40 f4 [100, 50]
0	0x3c50846a	0.0127268825
1	0xbdde2133	-0.10846176
2	0x3e665ec8	0.22497094
3	0xbdedf602	-0.11619188
4	0xbd66e224	-0.05636801
5	0x3dc51f75	0.096251406
6	0xbe167ec6	-0.14696798
7	0x3c0a8f94	0.008457083
8	0xbe1ec1fe	-0.1550369
9	0x3db221bd	0.08697841
10	0xbe42cacb	-0.19022672
11	0xbe6da5e8	-0.2320782
12	0x3dbf65ee	0.093456134
13	0x3d8b5c78	0.068047464
14	0xbd2d1954	-0.042260483
15	0xbdbc875e	-0.09205507
16	0xbd80830a	-0.06274994
17	0x3d3b5b73	0.04574151
18	0xbd484b2b	-0.04889981
19	0xbdcf4815	-0.101211704
20	0xbc9211da	-0.017830778
21	0x3de0cae3	0.109761976
22	0xbf046e32	-0.51730645
23	0xbd096d2a	-0.033551373
24	0xbbed2f29	-0.007238288
25	0x3e337c7d	0.17527957
26	0xbdb2ac91	-0.08724321
27	0x3d0f3a00	0.034967422
28	0xbc90179b	-0.017589381
29	0x3e44becd	0.1921341
30	0x3d59f48a	0.053211726
31	0x3b8a8636	0.004227425
32	0xbd4eeb22	-0.05051721
33	0x3e092c4a	0.13395801
34	0xbe06ecd5	-0.13176282
35	0x3de6d037	0.112701826
36	0x3db76876	0.08955471
37	0xbce869df	-0.028370796
38	0x3d82eb46	0.06392531
39	0xbd5b89f7	-0.05359837
40	0xbdd5031f	-0.10400986
41	0x3d2bb681	0.041922096
42	0xbd85f624	-0.06541088
43	0xbc6f1171	-0.014591561
44	0xbdb4bf29	-0.088255234
45	0x3dc02ed3	0.09383931
46	0xbe21f145	-0.15814693
47	0xbc8535d0	-0.016261011
48	0x3c886be1	0.016653003
49	0xbd96b4f1	-0.073587306
50	0xbe1a0da2	-0.15044263
51	0x3d87f74b	0.06638964
52	0xbdea8252	-0.11450638
53	0xbe198aad	-0.14994307
54	0x3d28f5f7	0.041250195
55	0xbd3c3a76	-0.04595419
56	0xbdaa223a	-0.083073094
57	0xbbfbd130	-0.007684849
58	0x3dbb2f2e	0.09139858
59	0xbddd776c	-0.108137935
60	0x3db2bb82	0.087271705
61	0xbd19ae2e	-0.037519626
62	0xbeb3e64f	-0.3513665
63	0xbcb6d2c8	-0.022317305
64	0xbddb4d87	-0.107081465
65	0xbda83394	-0.08212963
66	0xbddf3fbb	-0.109008275
67	0x3d81cd68	0.06338006
68	0x3c92c0fa	0.017914284
69	0xbd2c5452	-0.0420726
70	0xbd20008f	-0.039063033
71	0x3da00d5b	0.07815047
72	0xbd1b3013	-0.037887644
73	0x3ca59408	0.020212188
74	0xbe0201e4	-0.12696034
75	0x3de0e174	0.10980502
76	0xbe2343c6	-0.15943822
77	0xbbac2bb6	-0.005254234
78	0xbdc3bf2f	-0.0955795
79	0xbd17d3d5	-0.037067253
80	0xbea6bc75	-0.32565656
81	0xbdc88a7a	-0.09792037
82	0xbdb173ca	-0.08664663
83	0xbe460832	-0.19339064
84	0xbd9e4d92	-0.07729639
85	0xbe4b26ea	-0.19839063
86	0xbd2a10e2	-0.041520007
87	0xbc8fb301	-0.01754141
88	0xbc93f4a1	-0.018060984
89	0xbdf847d1	-0.12123073
90	0x3c2c39fd	0.010511872
91	0x3dbb436b	0.09143718
92	0xbd0d7394	-0.034534052
93	0xbc01f1dd	-0.0079312
94	0x3e410e8d	0.18853207
95	0xbdef2f84	-0.11678985
96	0xbdc55aac	-0.09636435
97	0x3d4c758b	0.049916785
98	0xbe98c5d1	-0.29838422
99	0xbd380713	-0.04492862
100	0x3cb31f4d	0.021865511
101	0x3c829c6c	0.015943728
102	0x3dafba6a	0.085804775
103	0xbdd85de0	-0.1056478
104	0x3cf69b77	0.030103428
105	0xbe0ac5a3	-0.13551955
106	0x3d2d4d87	0.042310264
107	0xbdca7007	-0.09884649
108	0xbe217265	-0.15766294
109	0xbdbe474c	-0.092909425
110	0x3d83560f	0.06412899
111	0x3c218db1	0.009860442
112	0xbb93accd	-0.0045066834
113	0x3e111d8c	0.14171427
114	0x3cd4dcdc	0.02598422
115	0xbd28750d	-0.041127253
116	0x3c2cc39a	0.010544682
117	0xbbdcf271	-0.0067427685
118	0x3ceb745a	0.028742004
119	0xbdd48d38	-0.10378498
120	0xbbdba440	-0.0067029297
121	0xbc04160d	-0.008061898
122	0x3d84fdc5	0.06493715
123	0xbd85e4d2	-0.06537785
124	0x3cf5a2f3	0.029984927
125	0xbcbb4e90	-0.02286461
126	0xbcbc2840	-0.022968411
127	0x3dfe0e6e	0.12405096
128	0xbda583dd	-0.080817915
129	0x3cfb6f57	0.03069274
130	0xbdd8f169	-0.1059292
131	0xbc5b1d21	-0.013373644
132	0xbdb69875	-0.089157976
133	0xbd72e931	-0.05930442
134	0x3d2400c3	0.04003979
135	0xbdff5c2e	-0.12468754
136	0xbe0ed443	-0.13948159
137	0x3d94af37	0.07259982
138	0xbcc32c6b	-0.023824891
139	0x3bfbf2ee	0.0076888716
140	0x3cbb91c1	0.02289665
141	0x3cfb8aa1	0.030705752
142	0x3db06150	0.08612311
143	0xbe0ee571	-0.13954712
144	0xbd9e25ba	-0.077220395
145	0xbdb7616b	-0.08954128
146	0x3d8d43da	0.06897707
147	0xbd1999d7	-0.03750023
148	0x3bc3b8d7	0.0059729624
149	0xbcb02453	-0.021501696
150	0x3d98c8a3	0.074601434
151	0x3e0e356f	0.13887571
152	0xbd155f9c	-0.036468133
153	0x3bba7b74	0.0056909863
154	0x3dadb866	0.08482437
155	0xbcb68b08	-0.022283092
156	0xbb860f42	-0.0040911743
157	0xbe1cacad	-0.15300246
158	0xbd0fbd42	-0.0350926
159	0x3d9bebab	0.076133095
160	0x3bd225cd	0.0064131976
161	0x3ce1b7a2	0.027553383
162	0x3d79321d	0.060838807
163	0x3baed738	0.0053357147
164	0xbc206e97	-0.009791992
165	0xbc965200	-0.018349648
166	0x3d26ccfd	0.040722836
167	0xbd0e86f8	-0.034796685
168	0x3d8fd23d	0.07022522
169	0x3c9fa96c	0.019489966
170	0xbdf2edb7	-0.11861747
171	0x3cef6327	0.029222084
172	0xbd1b83b3	-0.037967395
173	0x3cb65f8d	0.022262359
174	0x3c203a33	0.009779501
175	0x3df5bc19	0.119987674
176	0xbdc3bbf3	-0.09557333
177	0x3b3ec0de	0.0029106657
178	0xbddbaf56	-0.10726802
179	0x3a8fe0a7	0.0010976986
180	0xbca321ed	-0.019913638
181	0xbc824457	-0.015901728
182	0xbdc19e63	-0.09454038
183	0xbc0e62a2	-0.008690508
184	0xbc320140	-0.010864556
185	0x3a5b680a	0.000836969
186	0xbc66b54a	-0.014081309
187	0xbdcafa0b	-0.09910973
188	0xbd19e47e	-0.037571423
189	0x3d5f22e4	0.054476634
190	0x3d909dec	0.07061371
191	0x3e0b340b	0.13594072
192	0x3d8582eb	0.06519111
193	0xbcf60932	-0.030033682
194	0x3d31ca97	0.043406095
195	0xbd0e0487	-0.034672286
196	0xbdca9843	-0.09892323
197	0xbc42d073	-0.0118905185
198	0x3c0197da	0.007909739
199	0x3df849fc	0.121234864
200	0xbd94c6d4	-0.07264486
201	0xbb177b3a	-0.002311422
202	0x3e2b055e	0.16701266
203	0xbc8e8a56	-0.017399948
204	0xbe36fc01	-0.1786957
205	0x3cf37ecb	0.029723546
206	0xbddc2ab0	-0.107503295
207	0xbdd350c1	-0.10318137
208	0x3d2e25da	0.042516567
209	0x3e507b68	0.20359576
210	0xbe4080fe	-0.18799207
211	0xbeb3ac2e	-0.350923
212	0x3e121565	0.14265974
213	0x3e8722e7	0.26393816
214	0xbd180d3d	-0.037122
215	0x3c99c9c3	0.018772965
216	0xbd3a8711	-0.045538966
217	0x3d3c95a1	0.046041135
218	0xbcd664c1	-0.02617109
219	0xbd8322b5	-0.06403104
220	0xbd8c1982	-0.06840803
221	0x3dc5bb52	0.09654869
222	0xbe584373	-0.2111948
223	0xbdb12378	-0.08649343
224	0xbdc560a6	-0.09637575
225	0x3da37cfb	0.079828225
226	0x3cb384f3	0.021913981
227	0x3d94b218	0.07260531
228	0xbd97e254	-0.074162155
229	0x3e94fc76	0.29098862
230	0x3dd3b11c	0.10336515
231	0xbdc057b8	-0.09391731
232	0xbe21511f	-0.15753601
233	0x3d8f0ce9	0.06984884
234	0x3dbd960b	0.09257134
235	0x3dafc8d0	0.08583224
236	0x3d84873b	0.06471106
237	0x3e2b6e98	0.16741407
238	0xbc597257	-0.01327189
239	0xbe54735a	-0.20747128
240	0xbdede07b	-0.11615082
241	0x3c1f7a1b	0.009733702
242	0x3da5232a	0.08063348
243	0xbddc1a17	-0.10747164
244	0xbd5a8db0	-0.05335778
245	0x3ec6931c	0.3878411
246	0xbcae2e73	-0.021262383
247	0xbe0f009b	-0.13965075
248	0x390ca98d	0.00013414603
249	0xbc706de8	-0.014674641
250	0xbda332bd	-0.07968662
251	0xbc0db947	-0.008650131
252	0xbdd829b1	-0.10554827
253	0xbdcf490d	-0.10121355
254	0xbdd5ce06	-0.104396865
255	0xbdb43316	-0.08798806

41 f4 [50, 4]
0	0x3e28d2d5	0.16486676
1	0x3db9b386	0.090674445
2	0x3b538da1	0.0032280462
3	0x3d0f908b	0.035049956
4	0x3dbb9319	0.09158916
5	0xbd6a1339	-0.05714724
6	0x3e8a76ff	0.27043912
7	0xbe02a151	-0.1275685
8	0xbddfa18f	-0.10919487
9	0x3cd66796	0.02617244
10	0xbcf4a7b3	-0.029865121
11	0x3e5f8e6d	0.21831675
12	0xbd9ff56a	-0.07810481
13	0xbd332846	-0.04373958
14	0x3d86240b	0.065498434
15	0xbda1e631	-0.07905234
16	0x3e5fa1d5	0.21839078
17	0xbd3ba073	-0.045807313
18	0xbca71122	-0.020393912
19	0x3db6d852	0.089279786
20	0xbe41f3f6	-0.1894072
21	0xbcd72154	-0.02626101
22	0xbe75c54f	-0.24001049
23	0xbd0624d0	-0.03274995
24	0x3d17522a	0.036943592
25	0xbdff4677	-0.12464612
26	0xbd2f6f3b	-0.042830687
27	0xbd2f3486	-0.0427747
28	0xbe390fa4	-0.18072373
29	0xbe2b04c7	-0.16701041
30	0xbe29a711	-0.16567637
31	0xbdae7a23	-0.085193895
32	0x3e658049	0.22412218
33	0xbddce2aa	-0.1078542
34	0x3d844fcb	0.06460532
35	0xbd944357	-0.072394066
36	0xbdb7af21	-0.0896895
37	0x3e050fce	0.1299431
38	0xbdb41612	-0.08793272
39	0x3e4b1ed0	0.19835973
40	0x3dd9befd	0.10632131
41	0x3dd75e3b	0.1051602
42	0x3d016994	0.031594828
43	0xbe547c73	-0.20750599
44	0xbcfba80a	-0.030719776
45	0x3dcaeee4	0.09908846
46	0x3c730ca0	0.014834553
47	0xbe4c1602	-0.1993027
48	0xbe8f7a40	-0.28022957
49	0xbc1cdfe0	-0.00957486
50	0x3d6f4e5c	0.05842434
51	0xbd9ba302	-0.07599451
52	0x3c0c8962	0.0085776765
53	0x3d3acb42	0.045603998
54	0xbddd5055	-0.10806338
55	0x3e245e37	0.16051565
56	0xbdb45fc1	-0.08807326
57	0x3c123d3a	0.00892573
58	0x3d36c63f	0.044622656
59	0xbbcd0411	-0.0062565883
60	0x3c8968bb	0.016773572
61	0xbe171fcc	-0.14758223
62	0xbda9ad72	-0.08285035
63	0xbda756d9	-0.08170862
64	0x3d6f2380	0.058383465
65	0x3d337619	0.0438138
66	0x3d65ca32	0.05610103
67	0x3d56f8b4	0.052483276
68	0x3dc3ce57	0.095608406
69	0xbe9e1499	-0.3087509
70	0x3e6df268	0.23237002
71	0x3e498d96	0.19682917
72	0xbc37f61f	-0.011228113
73	0x3de86423	0.113472246
74	0x3b328a02	0.0027242904
75	0x3d8fbd54	0.07018533
76	0xbdb9209d	-0.090394236
77	0xbd9768e9	-0.07393057
78	0xbd8c6dd1	-0.06856883
79	0x3dabe4af	0.08393227
80	0xbc99e6c2	-0.018786792
81	0x3c291983	0.010321024
82	0xbe609832	-0.21933058
83	0xbd9f6c03	-0.077842735
84	0x3e59adbf	0.21257685
85	0x3d880aac	0.066426605
86	0xbca6659f	-0.020312129
87	0x3e4488b2	0.1919277
88	0x3bc1f863	0.0059195026
89	0x3e3a2936	0.18179783
90	0x3e1761c7	0.14783393
91	0xbe8e53dc	-0.27798355
92	0x3d6ebae6	0.05828371
93	0x3e5bf85b	0.21481459
94	0xbe25c0a5	-0.1618677
95	0xbd2b77cd	-0.041862298
96	0x3e0d5721	0.13802768
97	0xbcbdd012	-0.023170505
98	0xbd9ea1f3	-0.07745733
99	0x3d107017	0.035263147
100	0x3e27a7d0	0.16372609
101	0xbc6d4459	-0.014481627
102	0xbd5bc773	-0.053657006
103	0x3e30ffab	0.1728503
104	0xbc0fce64	-0.008777235
105	0xbd1c644e	-0.038181596
106	0xbd9b4b67	-0.07582741
107	0xbd9164f9	-0.07099337
108	0x3e60867d	0.21926303
109	0xbd6d5e54	-0.057951286
110	0x3d1169c6	0.035501264
111	0x3d62270c	0.05521302
112	0xbdf01711	-0.117231496
113	0xbc41116b	-0.011783938
114	0xbd8a4e96	-0.0675327
115	0xbca1e30d	-0.019761587
116	0x3d4ccf3a	0.050002314
117	0xbd5de653	-0.054174732
118	0x3cef342b	0.02919968
119	0x3e27b768	0.16378558
120	0xbea40f19	-0.3204277
121	0xbd996208	-0.07489401
122	0x3d12d146	0.03584411
123	0x3da5e3fe	0.08100127
124	0x3d99a1cc	0.075015634
125	0xbd6860f1	-0.056733076
126	0xbe0da967	-0.13834153
127	0xbd8d991d	-0.0691397
128	0xbdcae91e	-0.09907745
129	0x3cf6496e	0.03006431
130	0xbe06e8d8	-0.1317476
131	0x3d8fe34b	0.070257746
132	0xbe77c3c3	-0.24195771
133	0xbde56db6	-0.11202566
134	0xbbe69e1e	-0.007037892
135	0xbd173c04	-0.03692247
136	0x3de97020	0.11398339
137	0xbc8c172f	-0.017100899
138	0x3e041b1f	0.12900971
139	0xbdc42196	-0.095767185
140	0xbe91b6ba	-0.28459722
141	0xbdba621c	-0.09100744
142	0x3c76a0e9	0.015053012
143	0xbcf3438c	-0.029695295
144	0xbd11b026	-0.03556838
145	0x3d860533	0.065439604
146	0xbea3ac6c	-0.31967485
147	0x3ce09620	0.027415335
148	0xbbec452e	-0.0072103953
149	0x3d6a1c60	0.057155967
150	0xbcd1c0b7	-0.025604589
151	0x3d81822e	0.06323658
152	0xbb40b1c2	-0.0029402827
153	0xbe210bd1	-0.15727164
154	0x3dbb1a36	0.09135859
155	0x3dadb4da	0.0848176
156	0x3dc02bee	0.09383379
157	0xbd7aae17	-0.06120118
158	0x3c95048d	0.018190647
159	0x3da97de9	0.082759686
160	0x3e7d8d8c	0.24761027
161	0xbe35043a	-0.17677394
162	0x3d286901	0.041115765
163	0xbcaffcaa	-0.021482784
164	0x3d00457d	0.03131627
165	0x3d933e96	0.07189672
166	0xbe8eaaed	-0.2786478
167	0x3cab0b2a	0.020879347
168	0xbd3a22e0	-0.045443416
169	0x3e13aff4	0.1442259
170	0xbe13ca62	-0.14432672
171	0x3dc06984	0.093951255
172	0xbe516fbf	-0.20452784
173	0xbe9e8b5f	-0.30965707
174	0xbd023b07	-0.031794574
175	0x3decfba0	0.11571431
176	0x3e45faf0	0.19334006
177	0xbd336b2c	-0.04380338
178	0xbdc51b49	-0.09624345
179	0xbd9882fd	-0.07446859
180	0xbd1e6c33	-0.038677406
181	0x3de62042	0.112366214
182	0x3e0783c8	0.13233864
183	0x3e1d486c	0.15359658
184	0x3ddc38aa	0.10752995
185	0xbc9ba649	-0.01900019
186	0x3c76724b	0.015041898
187	0x3ceb6459	0.028734373
188	0xbc6e57dc	-0.0145473145
189	0xbd6aa538	-0.05728647
190	0xbcfeaa35	-0.03108702
191	0x3da306eb	0.07960304
192	0xbe8d53aa	-0.27602893
193	0xbc8391a5	-0.01606066
194	0x3e1e7779	0.15475263
195	0xbd31afb5	-0.043380458
196	0xbc505df3	-0.012717712
197	0x396c7075	0.00022548607
198	0x3e1b80aa	0.151858
199	0xbdf5c348	-0.120001376

layers.0.bias f4 [400]
0	0xbdcaf078	-0.09909147
1	0xbeab3a34	-0.33442843
2	0xbe74bd4c	-0.23900336
3	0x3d1778c1	0.036980394
4	0x3e8ee4e6	0.2790901
5	0xbd9abcad	-0.07555518
6	0x3e2b17c6	0.16708288
7	0x3deb56e3	0.11491182
8	0xbddef2c5	-0.10886148
9	0xbe1fb499	-0.15596236
10	0xbdf3d776	-0.1190633
11	0xbee57dbd	-0.44822493
12	0x3e306ac0	0.17228222
13	0x3cadf9ea	0.021237332
14	0x3e80a32e	0.25124496
15	0xbe6cd1ab	-0.23126857
16	0xbcf2a5c6	-0.029620063
17	0xbe964b6b	-0.29354414
18	0xbd969b88	-0.07353884
19	0x3dd11f10	0.10211003
20	0xbe8a0f7e	-0.26964945
21	0x3e0f848a	0.14015403
22	0xbe2a639d	-0.16639562
23	0xbea7ce4c	-0.3277458
24	0x3d815105	0.063142814
25	0x3d56631e	0.05234062
26	0x3e8943b5	0.2680947
27	0xbe02db14	-0.12778884
28	0x3d4cbae2	0.049982913
29	0xbb9d3809	-0.0047979397
30	0xbdf87ff5	-0.12133781
31	0x3d85b242	0.065281406
32	0xbe726dae	-0.23674652
33	0xbdce3144	-0.100679904
34	0xbde93a8b	-0.11388119
35	0x3e13f6e0	0.14449644
36	0xbe447aff	-0.19187544
37	0xbe85677c	-0.26055515
38	0x3e535add	0.2064013
39	0xbebc6781	-0.36797717
40	0xbc5e9033	-0.013584184
41	0x3e1c654d	0.15273018
42	0xbebafa9b	-0.36519322
43	0x3dbe945c	0.09305641
44	0xbeae056d	-0.33988515
45	0xbe444206	-0.19165811
46	0x3d9316b7	0.07182067
47	0xbeb63e22	-0.3559428
48	0xbdd25dd0	-0.102717996
49	0xbd8c8d2a	-0.068628624
50	0xbe4552ab	-0.19269817
51	0x3e0b449a	0.13600388
52	0x3b68957a	0.0035489486
53	0x3dd32251	0.1030928
54	0x3e040330	0.12891841
55	0x3dadb3b9	0.08481545
56	0xbd11bb04	-0.035578743
57	0x3c8719f7	0.016491873
58	0xbe351f46	-0.17687711
59	0xbe7c826c	-0.24659127
60	0xbcd63fb1	-0.026153417
61	0xbe2a6de3	-0.16643481
62	0x3dea8ef9	0.11453051
63	0xbe983a8d	-0.2973217
64	0x3c4b3853	0.012403565
65	0x3e7469a0	0.23868418
66	0xbecc8b4d	-0.39950028
67	0xbe9863e7	-0.2976372
68	0xbe9bad88	-0.3040583
69	0x3de0e7be	0.10981701
70	0x3e209e1a	0.15685311
71	0x3dfa75ac	0.122294754
72	0xbe0b36d8	-0.1359514
73	0x3d13b2f6	0.036059342
74	0xbeb49c3e	-0.35275453
75	0xbea478f6	-0.32123536
76	0x3deef826	0.11668424
77	0xbe3e533c	-0.18586439
78	0xbe9db134	-0.30799258
79	0x3d4da896	0.050209604
80	0xbd80f117	-0.06295984
81	0xbe40e361	-0.18836738
82	0xbeafe1b1	-0.34351876
83	0xbc136204	-0.008995537
84	0x3e9a2788	0.30108285
85	0xbde5f32c	-0.11228022
86	0x3e35c035	0.17749102
87	0x3e261e9d	0.16222616
88	0x3e425cb1	0.18980671
89	0x3d675fc4	0.056487814
90	0x3e12e200	0.14344025
91	0xbe8c3620	-0.27385044
92	0xbeb056ef	-0.34441325
93	0x3db4b67d	0.088238694
94	0x3e726407	0.2367097
95	0x3e3d3eb8	0.18480957
96	0xbda1a241	-0.078922756
97	0x3daa978e	0.08329688
98	0xbe1639a1	-0.14670421
99	0xbe2ab2a4	-0.16669708
100	0xbe868612	-0.26274163
101	0xbd377384	-0.0447879
102	0xbe01b224	-0.12665612
103	0xbb07832b	-0.0020677547
104	0x3de648a4	0.11244324
105	0xbeb62406	-0.3557436
106	0x3d5ce87b	0.05393265
107	0x3dba5e6c	0.09100041
108	0x3dfb6bd6	0.122764274
109	0x3e0ac3d9	0.13551272
110	0x3d84e991	0.06489862
111	0xbcbdb708	-0.023158565
112	0xbeb46d5f	-0.35239694
113	0x3d924515	0.071420826
114	0xbe7bf0f7	-0.2460364
115	0xbd8645b5	-0.06556264
116	0x3e5b8914	0.2143901
117	0x3bef6d79	0.0073067513
118	0xbeda3497	-0.42618248
119	0x3dbf5a50	0.093433976
120	0x3e035238	0.12824333
121	0xbe04a8d9	-0.12955035
122	0xbec8b8d9	-0.39203528
123	0xbebfa795	-0.37432542
124	0xbd12ed87	-0.035871055
125	0xbe925d94	-0.2858702
126	0xbd5368bd	-0.051613558
127	0xbd85cad1	-0.06532825
128	0x3d8f7a5a	0.070057586
129	0xbe06e909	-0.13174833
130	0x3cb9a917	0.022663636
131	0x3e46a922	0.19400457
132	0xbd16cc00	-0.036815643
133	0x3e025f4c	0.12731665
134	0xbcc03842	-0.023464326
135	0x3e8a2443	0.2698079
136	0xbe64f1c4	-0.22357851
137	0xbeb49062	-0.35266405
138	0x3e2fb2c4	0.17158037
139	0xbc5b3ae2	-0.013380738
140	0xbd318236	-0.04333707
141	0xbe2aa938	-0.16666114
142	0xbebba9f4	-0.366531
143	0x3c8fb963	0.017544454
144	0xbe4d9198	-0.20075071
145	0xbe94a119	-0.29029158
146	0xbde6a9b1	-0.11262835
147	0xbebb0d05	-0.3653337
148	0xbdae1ded	-0.08501802
149	0xbc900c07	-0.01758386
150	0x3ddfe8f1	0.10933102
151	0x3d89f8d2	0.06736912
152	0xbc8a42cd	-0.016877556
153	0xbdd7b31c	-0.10532209
154	0x3e03bb93	0.12864523
155	0xbea27e5a	-0.31737024
156	0xbb4bfb2b	-0.003112505
157	0xbd35803d	-0.04431175
158	0xbdd8a87e	-0.10579012
159	0x3e071e8b	0.13195245
160	0xbd6663c5	-0.05624749
161	0xbe3dfce5	-0.18553503
162	0xbe7ceddf	-0.24700116
163	0xbdbe59ec	-0.09294495
164	0x3dae5e56	0.08514087
165	0xbe9569de	-0.29182333
166	0xbeb9a1e1	-0.36256316
167	0xbeb73af8	-0.35787177
168	0xbd91dfc0	-0.07122755
169	0xbe3784f9	-0.17921819
170	0x3e7f18ac	0.24911755
171	0xbe776ec4	-0.24163347
172	0x3e00edf7	0.12590776
173	0xbda77d7e	-0.081782326
174	0xbccbf48e	-0.024896886
175	0xbd3afeb0	-0.045653045
176	0x3e3daf81	0.1852398
177	0x3da34b15	0.07973305
178	0x3d125f9d	0.035735715
179	0xbdbbb8d1	-0.0916611
180	0x3dbc15f1	0.091838725
181	0x3da912d0	0.08255541
182	0xbea77021	-0.32702735
183	0xbe8eb999	-0.27875975
184	0xbc53d20e	-0.012928499
185	0xbe37a7f2	-0.1793516
186	0x3c41f975	0.01183926
187	0x3d543216	0.05180558
188	0x3e0e35aa	0.13887659
189	0xbc3293e8	-0.010899521
190	0x3b2ddfc6	0.0026531084
191	0xbe8fb084	-0.28064358
192	0xbdb35cdb	-0.08757945
193	0xbcf8e9f8	-0.030385002
194	0xbe3c1180	-0.1836605
195	0xbe2d66a7	-0.1693369
196	0xbeb5e7f9	-0.35528544
197	0xbcacc348	-0.021089211
198	0x3e39e44b	0.18153493
199	0xbe8dff6e	-0.2773394
200	0xbc94528f	-0.018105773
201	0xbe5ea41a	-0.21742287
202	0xbe1fea1e	-0.15616652
203	0xbe43fbe3	-0.19139056
204	0xbe3368a9	-0.17520393
205	0xbe2db91c	-0.16965145
206	0xbeb5085b	-0.35357937
207	0x3e26de3e	0.16295716
208	0x3e032de6	0.12810478
209	0xbe43d3fb	-0.19123833
210	0x3e347f6f	0.17626737
211	0xbe85fed3	-0.26170978
212	0xbc06dfc9	-0.0082320655
213	0xbde97139	-0.11398549
214	0xbe91d56b	-0.28483137
215	0x3dc3014a	0.0952173
216	0x3de9b7f6	0.11412041
217	0x3c6b2f8c	0.014354598
218	0xbc59d02e	-0.013294263
219	0x3e6ad443	0.22932534
220	0x3cdbe4b3	0.02684245
221	0xbe4da10f	-0.2008097
222	0x3e2321e6	0.159309
223	0x3e46667a	0.19375029
224	0xbebabb72	-0.36471134
225	0xbca85fb9	-0.020553457
226	0x3e59db0e	0.21274969
227	0xbdeaa97c	-0.11458108
228	0xbdf088e3	-0.11744859
229	0xbda194bd	-0.07889698
230	0x3e0972b8	0.13422668
231	0xbe9799d6	-0.29609555
232	0xbe8a47f3	-0.27008018
233	0x3e28cf84	0.16485411
234	0x3dbf3ecc	0.093381494
235	0xbed89980	-0.4230461
236	0xbcb247da	-0.021762777
237	0xbd0be3b2	-0.034152694
238	0x3d97a72e	0.07404934
239	0x3d7ecae1	0.0622052
240	0x3e00e2d3	0.12586527
241	0xbe8cb4ac	-0.27481592
242	0xbb070874	-0.0020604404
243	0x3e83ae44	0.25718892
244	0xbdf9bcf8	-0.12194246
245	0xbeaf5143	-0.34241685
246	0x3db273fc	0.087135285
247	0x3dbc27a0	0.09187245
248	0xbe693985	-0.22775848
249	0xbe68ec7a	-0.22746459
250	0xbe44c1fd	-0.19214626
251	0xbe7dd59f	-0.24788521
252	0xbe99a91c	-0.30011833
253	0x3d6ddb1f	0.0580703
254	0xbddc4454	-0.1075522
255	0xbdf4f9e1	-0.11961723

layers.12.bias f4 [50]
0	0xbe08f883	-0.1337605
1	0x3eabbfe4	0.33544838
2	0x3e9e8246	0.30958766
3	0x3bf680e7	0.0075226906
4	0x3e374919	0.17898978
5	0x3ea1188e	0.31464046
6	0xbd9f1cb8	-0.077691495
7	0x3ea95771	0.33074525
8	0x3e061b24	0.13096291
9	0x3e9e1de1	0.3088217
10	0xbe09a5d1	-0.1344216
11	0x3e0be059	0.136598
12	0x3e5b8126	0.21435985
13	0x3e3bf059	0.18353404
14	0xbd0f7a58	-0.035028785
15	0xbddc5f53	-0.10760369
16	0xbe206af1	-0.15665795
17	0x3ec80907	0.39069387
18	0xbd4a0b9d	-0.04932748
19	0xbddceb8e	-0.10787116
20	0x3e175fab	0.14782588
21	0x3d584fea	0.052810587
22	0xbbd21301	-0.006410957
23	0x3caa7a9c	0.020810418
24	0xbda25251	-0.07925857
25	0x3e7281b9	0.23682298
26	0xbd4e34a7	-0.050343182
27	0x3e58d247	0.21173964
28	0xbd8f6dae	-0.070033416
29	0x3e7ce4d5	0.24696667
30	0x3edd11a3	0.43177518
31	0xbbc3cf02	-0.005975605
32	0xbc980c6a	-0.018560607
33	0x3ec5b2a9	0.3861287
34	0x3d765527	0.0601398
35	0x3e8cd71d	0.27507868
36	0x3e89d786	0.26922244
37	0xbe01b092	-0.12665012
38	0x3e5e8b14	0.21732742
39	0xbbf44857	-0.0074549126
40	0x3e3111d8	0.17291963
41	0x3e6b288d	0.22964688
42	0xbdda32aa	-0.10654195
43	0x3eba62e7	0.36403582
44	0x3c8b879d	0.017032439
45	0x3da7f376	0.08200733
46	0xbe0a1fb0	-0.1348865
47	0xbde22401	-0.110420235
48	0x3ed3176f	0.41228816
49	0x3e3bbd00	0.18333817

layers.15.bias f4 [4]
0	0xbe5780da	-0.21045247
1	0xbe27593d	-0.16342635
2	0x3c575e78	0.013145082
3	0x3e519165	0.2046562
